mlp_he_initialized_model.pth (torch, 14002 bytes, 5 tensors)

network.0.weight f4 [64, 9]
0	0xbf74e78b	-0.95665807
1	0x3eb09b56	0.34493512
2	0x3f01dd86	0.5072864
3	0x3f24a1f9	0.6430965
4	0x3ea1df4f	0.31615683
5	0x3f2822bf	0.6567802
6	0xbe8d7c53	-0.27633914
7	0xbee3b249	-0.44471958
8	0xbe980921	-0.29694465
9	0x3edb4f1b	0.4283379
10	0x3f5dbd04	0.8661654
11	0xbca632f1	-0.020287963
12	0x3f04f08e	0.5192956
13	0xbddbed92	-0.10738672
14	0xbf19ed5c	-0.60127807
15	0x3dfa68c6	0.12227015
16	0x3f329dbb	0.6977193
17	0x3e1ed972	0.15512636
18	0xbf4c756e	-0.79866683
19	0x3f1bf1c3	0.60915774
20	0xbe979ba9	-0.29610947
21	0x3f596d29	0.8493219
22	0x3e92a119	0.28638533
23	0xbf09dbe1	-0.53851134
24	0xbf2444d5	-0.6416753
25	0xbe7517ca	-0.23934856
26	0xbe5394b0	-0.20662189
27	0x3f0664bc	0.5249746
28	0xbeeb89a9	-0.46003464
29	0xbeee5309	-0.46547726
30	0xbe8d82d2	-0.2763887
31	0x3e9e5ddb	0.3093098
32	0xbe91967c	-0.28435123
33	0x3f02c616	0.51083505
34	0x3f62cf3b	0.8859746
35	0xbeeaaef2	-0.45836598
36	0x3f2707b4	0.6524613
37	0x3f800f0d	1.0004593
38	0xbf888caf	-1.0667933
39	0xbcd76fc9	-0.02629842
40	0xbe591324	-0.21198708
41	0xbedbc167	-0.42920992
42	0xbf170af1	-0.5900107
43	0xbdc2e5f6	-0.09516518
44	0xbf0b1622	-0.54330647
45	0x3f368038	0.71289396
46	0xbdf566ca	-0.11982496
47	0xbf07535b	-0.52861565
48	0xbe779da9	-0.24181236
49	0xbdb48e36	-0.08816187
50	0x3f1eae4e	0.6198472
51	0xbf321765	-0.6956695
52	0x3ee82bb4	0.45345843
53	0x3e32260a	0.17397323
54	0x3f1877cb	0.5955779
55	0x3f439626	0.76400983
56	0xbc207c8f	-0.009795322
57	0x3d9b254d	0.07575474
58	0x3eaa7463	0.3329192
59	0xbf279174	-0.6545632
60	0x3ec10d84	0.37705624
61	0xbec13c46	-0.37741297
62	0xbe16af24	-0.14715248
63	0x3ea7c52c	0.32767618
64	0x3f71e499	0.9448944
65	0x3d92aea1	0.07162214
66	0xbeb51357	-0.35366318
67	0xbf1301dd	-0.5742472
68	0x3d92e952	0.071734086
69	0xbe3eccf3	-0.1863287
70	0x3e8e1a81	0.27754596
71	0x3ee7a472	0.4524265
72	0x3f4f66d8	0.810163
73	0xbe880e61	-0.2657347
74	0x3ef052a7	0.4693806
75	0x3f4535c4	0.77035165
76	0xbedbe2a1	-0.42946342
77	0xbf7ff847	-0.99988216
78	0x3f3f7b73	0.74797744
79	0xbf43b851	-0.7645312
80	0xbf45ff67	-0.7734284
81	0xbf88e0a0	-1.069355
82	0xbeaf6237	-0.3425462
83	0x3f20a7ef	0.62756246
84	0x3e458c62	0.19291833
85	0x3f212cc5	0.6295894
86	0x3e5dfc31	0.21678235
87	0xbde6b8e0	-0.11265731
88	0xbd4fac14	-0.050701216
89	0xbdef83b4	-0.11695042
90	0xbf049a3f	-0.5179786
91	0xbc8a2d2d	-0.016867245
92	0xbe5546f0	-0.20827842
93	0x3f3834b0	0.71955395
94	0x3d9e2144	0.07721189
95	0x3ef15683	0.47136316
96	0x3f0eba38	0.557529
97	0xbc7220a7	-0.014778293
98	0x3e9057e0	0.28192043
99	0xbf113192	-0.56716263
100	0x3d9a09f7	0.07521432
101	0xbf00165c	-0.5003412
102	0xbec3156f	-0.3810229
103	0x3db8705c	0.09005806
104	0x3f256cde	0.64619243
105	0xbedf54d1	-0.43619397
106	0x3f16483e	0.5870398
107	0xbf1e47e0	-0.6182842
108	0xbf89de4a	-1.0770962
109	0x3e48a89b	0.19595568
110	0x3e240cf8	0.16020572
111	0xbee9f177	-0.45692036
112	0x3ec008a7	0.375066
113	0x3ee1efa4	0.44128144
114	0x3ef23ac1	0.4731045
115	0xbf494174	-0.786155
116	0xbce72724	-0.028216906
117	0xbf5887fd	-0.845825
118	0x3e92e252	0.28688294
119	0xbf53bb32	-0.8270751
120	0x3f35af97	0.70971054
121	0xbdfd1ac2	-0.12358619
122	0x3ecc9ace	0.39961857
123	0x3dd747b4	0.10511723
124	0x3f600c21	0.8751851
125	0xbf177aa0	-0.59171486
126	0x3daa39cc	0.08311805
127	0x3e6bcbf7	0.23027025
128	0xbf5b97cc	-0.857785
129	0xbdef1990	-0.116747975
130	0x3f0df2c7	0.55448574
131	0xbebeeced	-0.37290135
132	0x3e6f1a38	0.23349845
133	0x3eae79fe	0.34077448
134	0x3f07cada	0.530439
135	0x3f8e2663	1.1105465
136	0xbee7e90b	-0.45294985
137	0x3f0a4bb7	0.5402178
138	0xbe810269	-0.2519715
139	0x3cf62e82	0.030051474
140	0xbf4a1bc3	-0.7894861
141	0x3e8a225d	0.26979342
142	0x3f1b03b0	0.605525
143	0xbf011142	-0.5041696
144	0xbf9ac248	-1.209054
145	0x3f5646cc	0.8370178
146	0xbdbae534	-0.09125748
147	0xbf096772	-0.5367347
148	0xbe3ea29a	-0.18616715
149	0xbeac7bd8	-0.33688235
150	0x3f1815e2	0.5940839
151	0x3ea97b33	0.33101806
152	0x3f30d7ce	0.6907929
153	0x3d9b94a8	0.07596713
154	0xbf33c904	-0.702286
155	0xbe4b1a88	-0.1983434
156	0xbf0d4561	-0.5518399
157	0x3f30a3ff	0.6900024
158	0x3f40ead6	0.7535833
159	0xbf21bca2	-0.63178456
160	0xbf567db1	-0.8378554
161	0xbf28bd85	-0.65914184
162	0x3f1c7118	0.6111007
163	0x3f555c58	0.8334403
164	0x3cd6091d	0.026127392
165	0xbf269cee	-0.65083206
166	0xbf5296b3	-0.822612
167	0xbec3fe70	-0.38280058
168	0xbdc720a9	-0.09723026
169	0xbe9d5a71	-0.30733064
170	0x3e9248ef	0.2857127
171	0xbfb823af	-1.438589
172	0xbebbe774	-0.36700022
173	0x3ebeef80	0.372921
174	0xbe35a71a	-0.17739525
175	0x3bcf5c2a	0.0063281255
176	0xbe400e6e	-0.18755504
177	0xbe8a2e7a	-0.26988584
178	0x3ea21ecc	0.3166412
179	0x3e833ce6	0.256324
180	0x3f4f5780	0.8099289
181	0xbea6b62d	-0.32560864
182	0xbd9e5f91	-0.077330716
183	0xbe7dbfd3	-0.24780206
184	0x3ead25ef	0.33818004
185	0xbf457224	-0.7712729
186	0xbf1bee52	-0.6091052
187	0xbd4f728a	-0.050646342
188	0xbf2eee33	-0.68332213
189	0x3f62fa87	0.88663524
190	0x3f100970	0.562644
191	0x3d601a24	0.05471243
192	0x3f2d31c9	0.6765409
193	0x3eb2d796	0.34930104
194	0xbe0e7b19	-0.13914146
195	0xbf17690d	-0.5914467
196	0x3f52b031	0.82300097
197	0xbf1e69a0	-0.6187992
198	0x3ea0bcbb	0.3139399
199	0x3ea09bad	0.3136877
200	0x3d8abb91	0.06774057
201	0xbdc40808	-0.09571844
202	0xbe7c332f	-0.246289
203	0x3e7fe359	0.2498907
204	0x3ee80c34	0.4532181
205	0x3e757f73	0.239744
206	0xbe543033	-0.20721512
207	0x3eef8647	0.46782133
208	0xbf2b3d16	-0.66890085
209	0x3f549c5b	0.8305108
210	0x3ebe7d3f	0.3720493
211	0x3e7b152a	0.24519792
212	0xbf25e65a	-0.64804614
213	0xbf15f3e9	-0.585753
214	0xbea79aa0	-0.32735157
215	0x3f476432	0.7788726
216	0x3f4a1802	0.78942883
217	0x3ee45dd0	0.44602823
218	0xbf3b2d1c	-0.73115706
219	0x3e70f64c	0.23531455
220	0x3dc883c9	0.09790761
221	0x3f222adf	0.63346666
222	0x3eacc08f	0.3374066
223	0xbf019e8d	-0.50632554
224	0xbd224dfc	-0.039625153
225	0x3d90ab00	0.07063866
226	0xbf2c60d9	-0.6733528
227	0xbd9e8a77	-0.07741254
228	0x3eb16a8c	0.346516
229	0xbf2b58b2	-0.66932213
230	0x3ec262a9	0.37965897
231	0xbf01dbf9	-0.50726277
232	0xbeb073b7	-0.34463283
233	0xbee16f1e	-0.44030088
234	0x3de2c935	0.110735334
235	0xbeba24d1	-0.36356214
236	0x3d93e801	0.072219856
237	0xbed68f52	-0.4190622
238	0x3f610090	0.87891483
239	0x3e649983	0.22324185
240	0x3f5d812d	0.8652523
241	0xbe92ff67	-0.28710482
242	0xbd242403	-0.040073406
243	0x3ed7158b	0.42008623
244	0x3f0a4ef3	0.54026717
245	0x3f2161f6	0.630401
246	0xbe01c9d5	-0.12674649
247	0xbe53351e	-0.20625731
248	0xbe547552	-0.20747879
249	0xbed0dca3	-0.40793332
250	0xbdccac54	-0.099938065
251	0x3ec8ef8b	0.39245257
252	0x3c8deee9	0.017325835
253	0x3ecf0a72	0.40437657
254	0x3f75ee1b	0.96066445
255	0xbdfd2f00	-0.1236248

network.0.bias f4 [64]
0	0xbd5a8c81	-0.05335665
1	0x3e8043d1	0.2505174
2	0x3e264ea7	0.16240941
3	0x3d026280	0.03183222
4	0x3ed4afd6	0.41540402
5	0x3e20c6b1	0.15700795
6	0x3e6de03d	0.23230071
7	0xbed2b5bf	-0.41154286
8	0xbdcfefcf	-0.10153162
9	0xbea0f870	-0.31439543
10	0xbe3a6ae8	-0.18204844
11	0xbe3135a1	-0.17305614
12	0xbdd79f4e	-0.10528432
13	0xbe765d27	-0.24058972
14	0xbe48b0cc	-0.19598693
15	0xbd25d533	-0.040486526
16	0x3c82a57a	0.015948046
17	0xbe8c8b39	-0.27449968
18	0xbe7bb884	-0.24582106
19	0x3e444fde	0.19171092
20	0xbe822cfd	-0.25424948
21	0x3e91b928	0.28461576
22	0xbe582c43	-0.21110635
23	0x3e03fabf	0.12888621
24	0x3ddbba80	0.107289314
25	0xbe463b23	-0.19358496
26	0x3ea987cd	0.3311142
27	0xbe85cffa	-0.26135236
28	0xbe69bab0	-0.22825122
29	0x3ebfa97c	0.37433994
30	0xbecb23f5	-0.3967587
31	0x3e704859	0.23465098
32	0x3ea16136	0.3151948
33	0x3e3dd401	0.18537904
34	0xbde0d5b8	-0.109782636
35	0x3e0b5a7f	0.1360874
36	0xbe509e87	-0.20372973
37	0x3d90cb7f	0.07070064
38	0xbbeb4411	-0.007179745
39	0xbe5cd045	-0.21563824
40	0x3e451101	0.19244768
41	0x3e2d4775	0.1692179
42	0x3c26072f	0.010133549
43	0x3d91310c	0.07089433
44	0xbca4f845	-0.020137915
45	0xbe467ba3	-0.19383101
46	0xbe84a711	-0.25908712
47	0x3eb042ac	0.34425867
48	0xbd2cc7bc	-0.04218267
49	0x3d607154	0.054795578
50	0x3ea8fd88	0.3300593
51	0xbe178b18	-0.14799154
52	0xbd81fc3c	-0.06346938
53	0xbedd2053	-0.43188724
54	0xbd06e7f5	-0.032936055
55	0xbe335309	-0.17512144
56	0x3ecbf481	0.3983498
57	0xbeb5473c	-0.3540591
58	0x3e9de829	0.30841187
59	0xbdf4a8ea	-0.1194628
60	0x3edb2f3e	0.4280948
61	0x3e0ba172	0.13635805
62	0x3ed14ae2	0.40877444
63	0xbe5bfa15	-0.21482117

network.2.weight f4 [32, 64]
0	0x3e93f735	0.28899541
1	0xbe10efc7	-0.14153968
2	0xbc05ca8a	-0.008165965
3	0x3ed786ea	0.4209512
4	0x3db20840	0.0869298
5	0x3e904d1b	0.28183827
6	0xbeaf6394	-0.3425566
7	0xbd0bd63d	-0.03413986
8	0x3ecded0a	0.4021991
9	0x3e835e91	0.25658086
10	0xbe11d280	-0.14240456
11	0x3e959981	0.29218677
12	0xbd078bad	-0.03309219
13	0xbe274b12	-0.16337231
14	0x3d931b12	0.071828976
15	0xbebc802d	-0.3681654
16	0xbef9358e	-0.4867367
17	0x3e5405cc	0.20705336
18	0xbe45fa22	-0.193337
19	0x3e977c22	0.29586893
20	0xbe842785	-0.258114
21	0xbe00cb14	-0.12577468
22	0x3d49e4be	0.04929041
23	0x3de10672	0.109875575
24	0x3e42fbe8	0.19041407
25	0x3d060765	0.032721896
26	0x3e08cd66	0.13359603
27	0xbe77f01c	-0.24212688
28	0xbe414836	-0.18875203
29	0x3ebe9f4a	0.37230903
30	0xbd8aaeed	-0.06771646
31	0xbdb500f5	-0.08838073
32	0xbdf00868	-0.11720353
33	0xbcc94bd3	-0.024572289
34	0xbe43ca9e	-0.19120261
35	0xbe5d8a3f	-0.21634768
36	0xbe827b65	-0.25484768
37	0xbdddc5b3	-0.10828724
38	0x3e191ba3	0.14951949
39	0x3eb49df0	0.35276747
40	0x3d9fa6a8	0.07795459
41	0x3e0470bf	0.12933634
42	0xbcc80760	-0.02441758
43	0x3e88ae8e	0.26695675
44	0xbd1b1c9d	-0.037869085
45	0xbe0b8c6e	-0.13627788
46	0xbbacdda7	-0.0052754465
47	0x3f0777e3	0.5291731
48	0x3e7b2f66	0.245298
49	0xbd3aedf6	-0.045637093
50	0xbe235cbf	-0.15953349
51	0xbe8013bc	-0.25015056
52	0xbecd929f	-0.40150926
53	0xbe891b62	-0.26778704
54	0x3dfb9c7c	0.122857064
55	0xbea3cadf	-0.31990716
56	0xbdfbea2e	-0.123005256
57	0xbe180517	-0.14845692
58	0x3e020ac2	0.12699416
59	0x3d98f313	0.07468238
60	0x3e656997	0.2240356
61	0xbe1ffae5	-0.15623052
62	0xbe4b3998	-0.19846189
63	0xbe7057e1	-0.23471023
64	0xbe01de65	-0.12682493
65	0xbcdc3eab	-0.026885351
66	0xbd59a5d2	-0.053136654
67	0xbf14abbe	-0.5807456
68	0xbe155c33	-0.14585952
69	0x3e684d05	0.2268563
70	0x3d975cc8	0.073907435
71	0x3dbea0f1	0.09308041
72	0xbe159b8c	-0.14610118
73	0x3b9b5649	0.0047405106
74	0x3d759837	0.059959617
75	0xbf520009	-0.82031304
76	0x3e19145b	0.14949171
77	0x3ddc77e0	0.10765052
78	0xbea64206	-0.32472247
79	0xbe5dfb61	-0.21677925
80	0x3ea73b72	0.3266254
81	0xbd0078ee	-0.031365328
82	0xbea2b220	-0.31776524
83	0xbe405d91	-0.18785693
84	0xbe5c7df4	-0.21532422
85	0xbe5e8834	-0.21731645
86	0xbda1252a	-0.078684166
87	0xbecbcd4c	-0.39805067
88	0xbed74c65	-0.42050472
89	0xba1ac2d9	-0.00059036684
90	0xbd8d59f9	-0.069019265
91	0x3e53bfa8	0.2067858
92	0x3d70c250	0.05877906
93	0x3dfab1d2	0.12240948
94	0x3e9a53ff	0.3014221
95	0x3e350c6a	0.17680517
96	0x3dfa75a0	0.122294664
97	0x3ebbf6a6	0.36711615
98	0xbe21398e	-0.15744612
99	0x3e6a55a8	0.22884238
100	0x3ee36eeb	0.4442056
101	0xbf0d7f77	-0.5527262
102	0xbea67a69	-0.32515267
103	0xbe784d7d	-0.2424831
104	0xbe57cf90	-0.21075273
105	0x3e457ac8	0.19285119
106	0x3ed6cde9	0.41953972
107	0xbf0d5166	-0.5520233
108	0x3cf64bfb	0.030065527
109	0xbe3126ed	-0.17300005
110	0xbd752c4a	-0.05985669
111	0x3d49068f	0.04907852
112	0xbde56ecb	-0.11202773
113	0xbdc3c78a	-0.095595434
114	0x3f5c1379	0.8596721
115	0x3eb3fc8e	0.3515362
116	0x3ecc5f1d	0.39916316
117	0x3e5731fb	0.2101516
118	0x3e6373e4	0.22212178
119	0x3dbffe19	0.09374637
120	0xbf12d630	-0.57358074
121	0x3d2e38c0	0.04253459
122	0xbeb9245e	-0.36160558
123	0x3e0a8bf2	0.13529947
124	0xbf364b5c	-0.7120874
125	0x3ebedb93	0.37276897
126	0xbee6b009	-0.4505618
127	0xbe4c10e0	-0.19928312
128	0x3d950fd3	0.07278409
129	0x3e9df07b	0.30847535
130	0x3ea554c5	0.32291237
131	0xbe9876f9	-0.2977827
132	0xbe468adb	-0.19388907
133	0xbe36fdcd	-0.17870255
134	0x3daa0cfc	0.08303258
135	0x3f2d2896	0.67640054
136	0x3d8db74f	0.06919729
137	0xbf0467fa	-0.51721156
138	0xbd442297	-0.04788455
139	0xbe82b1ea	-0.25526363
140	0x3e642a85	0.22281845
141	0x3c6f22ab	0.014595668
142	0xbc98a64f	-0.01863399
143	0xbe96bb7e	-0.2943992
144	0x3e082ba5	0.13297899
145	0xbde2d679	-0.11076064
146	0x3ee90e82	0.4551888
147	0xbdf242a0	-0.11829114
148	0x3e747709	0.23873533
149	0xbd770c0d	-0.060314227
150	0xbc44e460	-0.0120173395
151	0xbf214206	-0.6299137
152	0x3cf8e0a3	0.030380553
153	0x3d4d64c8	0.05014494
154	0x3db33775	0.08750812
155	0x3ded676b	0.11591991
156	0xbd69cd9f	-0.05708086
157	0xbec765a7	-0.38944742
158	0x3f2f3f60	0.6845608
159	0xbd55872b	-0.05213086
160	0x3dc585f1	0.09644688
161	0xbe29dc02	-0.16587833
162	0xbd514927	-0.051095154
163	0x3db7dda5	0.08977822
164	0x3d1714e9	0.036885176
165	0xbeb8772f	-0.3602843
166	0xbf097875	-0.5369943
167	0x3d2f2290	0.04275757
168	0xbed0b206	-0.4076082
169	0x3e47cca0	0.19511652
170	0x3eda90d0	0.42688608
171	0xbf1879e4	-0.5956099
172	0xbe8f3690	-0.27971315
173	0x3e9bbe41	0.3041859
174	0x3e83fec6	0.25780314
175	0xbed3a551	-0.41337064
176	0x3dbf21bb	0.093326055
177	0xbd7bc7a0	-0.061469674
178	0x3f34f072	0.7067939
179	0x3dca255e	0.098704085
180	0x3d069b09	0.032862697
181	0x3b1429a3	0.0022607825
182	0x3e4337c0	0.19064236
183	0x3e146b4c	0.14494056
184	0xbddc900f	-0.107696645
185	0xbdac946d	-0.084267475
186	0x3e6d5d05	0.23180015
187	0x3e1af453	0.15132265
188	0xbf018826	-0.5059837
189	0x3db61966	0.08891563
190	0x3cb427e4	0.021991678
191	0xbe286bd2	-0.1644738
192	0xbd1fa788	-0.03897813
193	0xbdf01020	-0.117218256
194	0x3b18cacc	0.0023314236
195	0x3da792f9	0.0818233
196	0xbdd27fef	-0.10278308
197	0x3e4f1cde	0.20225856
198	0x3e03793e	0.12839219
199	0x3d97b454	0.07407442
200	0x3d027b88	0.03185609
201	0xbebd9b96	-0.37032765
202	0xbec1ed31	-0.37876275
203	0xbbb51c31	-0.0055270423
204	0x3ee61f63	0.4494582
205	0xbe2b64cd	-0.16737671
206	0xbe98202e	-0.2971205
207	0xbc0837f9	-0.008314126
208	0xbe7ba54d	-0.24574776
209	0x3e9c9718	0.30584025
210	0x3d7c403a	0.06158469
211	0xbed62909	-0.41828182
212	0xbf017bc4	-0.50579476
213	0x3e208d23	0.1567884
214	0xbd80f215	-0.062961735
215	0x3e554601	0.20827486
216	0xbe540ab4	-0.20707208
217	0xbe1d7982	-0.15378383
218	0x3eafe238	0.3435228
219	0xbd01cf0f	-0.031691607
220	0x3e0f579b	0.13998263
221	0x3e86243c	0.2619952
222	0xbe24fec8	-0.16112816
223	0x3cf01db0	0.029311031
224	0xbe623af8	-0.22092807
225	0xbd871b9b	-0.06597062
226	0x3dd55bd7	0.10417908
227	0xbded1af7	-0.11577409
228	0xbe4fbe2a	-0.20287386
229	0xbec7fef4	-0.390617
230	0x3ed59138	0.41712356
231	0x3dbfd2d0	0.09366381
232	0xbdc64b4f	-0.09682333
233	0x3d9496d3	0.0725533
234	0x3f28edfe	0.6598815
235	0x3ee1bb0c	0.44088018
236	0xbc8ad576	-0.01694749
237	0xbd91931c	-0.07108137
238	0xbdbdca2f	-0.09267079
239	0x3cfd50f5	0.030922392
240	0xbe7e9e22	-0.2486501
241	0x3e0fa8ef	0.14029287
242	0x3f39773e	0.72447574
243	0xbea71dde	-0.32639974
244	0xbe975046	-0.2955343
245	0xbc34de9e	-0.011039404
246	0x3d984bc3	0.074363254
247	0x3e36c61a	0.17849007
248	0x3d25980e	0.040428214
249	0x3de20174	0.110354334
250	0xbe2790b3	-0.16363792
251	0xbd4cfc42	-0.05004526
252	0x3eb50e8c	0.3536266
253	0xbe0b79c6	-0.13620672
254	0x3e3bf8b3	0.1835659
255	0xbe878fd6	-0.26476926

network.2.bias f4 [32]
0	0x3d9e7355	0.077368416
1	0xbdf74763	-0.12074163
2	0xbde92867	-0.11384659
3	0xbc6b600f	-0.014366164
4	0x3c1f12f0	0.009709105
5	0xbda23982	-0.07921125
6	0x3e0b1745	0.13583095
7	0xbddc9825	-0.10771207
8	0x3dd01030	0.101593375
9	0xbdf95e73	-0.12176218
10	0x3c096ef0	0.008388266
11	0x3d65bda8	0.056089073
12	0x3d8c987e	0.06865023
13	0xbc6aab5b	-0.014323081
14	0x3d33d09e	0.043900125
15	0x3dcdc5ff	0.100475304
16	0x3d7cdbf7	0.061733212
17	0x3ded5153	0.11587777
18	0x3c9cfbce	0.019163039
19	0xbc6fcf48	-0.014636822
20	0xbdb3a337	-0.08771365
21	0xbcd2845d	-0.025697881
22	0xbbb63685	-0.0055606985
23	0x3e55780b	0.20846574
24	0x3cea9ca3	0.028639143
25	0x3ccc21df	0.024918495
26	0xbd3b2e82	-0.04569865
27	0x3cc0db32	0.02354202
28	0x3e845b6f	0.25851008
29	0x3daeedc2	0.085414425
30	0xbe101000	-0.14068604
31	0xbde0170d	-0.109418966

network.4.weight f4 [1, 32]
0	0x3e7dd842	0.24789527
1	0x3f3f4a46	0.7472271
2	0x3f25bab9	0.6473804
3	0x3eb2ab5a	0.34896356
4	0x3ea38741	0.31939128
5	0xbe8438e4	-0.25824654
6	0xbed19e62	-0.4094115
7	0x3f0bd583	0.5462267
8	0xbd0694f7	-0.032856908
9	0x3ed75376	0.42055863
10	0xbec04302	-0.37551123
11	0xbef6a29e	-0.48170942
12	0xbeef3f92	-0.46728188
13	0xbedf5b8b	-0.4362453
14	0x3e20aa31	0.15689923
15	0xbd8ffbe4	-0.07030466
16	0xbe203072	-0.1564348
17	0x3e920e10	0.28526354
18	0xbeeabbe0	-0.45846462
19	0xbe8a994e	-0.27070087
20	0xbe672619	-0.22573127
21	0xbe95e3d9	-0.29275396
22	0xbec6f117	-0.38855812
23	0x3ee0953f	0.43863866
24	0xbe82f160	-0.2557478
25	0xbeabb497	-0.33536217
26	0xbe4a221f	-0.19739579
27	0xbd76f318	-0.060290426
28	0x3f2caf00	0.6745453
29	0x3e42c1c9	0.19019236
30	0xbe6f51e7	-0.23371087
31	0x3ed111e1	0.40833953
