mlp_xavier_initialized_model.pth (torch, 14042 bytes, 5 tensors)

network.0.weight f4 [64, 9]
000000 3c e8 90 be e8 8e ba bd e9 01 93 3d ee 14 8a bc
       -0.2830218 -0.091092885 0.07178099 -0.016855683
000010 b8 80 29 be ff 90 39 3e 16 54 44 be e2 92 02 be
       -0.16553009 0.18121718 -0.19172701 -0.12751344
000020 b9 ee c1 3d 71 25 94 be 01 81 4d be 8b df cf 3d
       0.09469361 -0.28934816 -0.20068742 0.10150059
000030 f7 84 76 bd 95 b6 25 be 13 c0 08 3e 8d 0e 7e be
       -0.0601854 -0.16182931 0.1335452 -0.24810238
000040 68 69 96 bd f8 b6 be 3e 46 b4 e5 be 19 bd 2b 3e
       -0.073443234 0.3724897 -0.448641 0.16771354
000050 e3 99 3a be cd a7 ad 3c 0a 74 0d 3d 6b 84 81 3e
       -0.18222766 0.021198178 0.03453449 0.2529634
000060 b1 46 ce be 31 f4 a6 be fc 2b ac 3c 5c a4 12 3e
       -0.40288308 -0.32608178 0.021017067 0.1432051
000070 60 61 11 bd 39 c1 6c be f2 b7 8f be 8a 7d fa bd
       -0.035493255 -0.23120584 -0.28070027 -0.12230976
000080 c0 ca 06 bc 74 4c 27 3e 84 be 93 3d 14 e3 c8 3d
       -0.00822705 0.16337758 0.07214072 0.09808937
000090 60 45 37 3e 26 a6 17 be 80 bc 2f be 73 de 1f bf
       0.17897558 -0.14809474 -0.17161751 -0.62448806
0000a0 84 ca 92 3e 86 8e b7 3e 41 ae cc 3d 6b 3b f1 3c
       0.28670132 0.35850924 0.09994174 0.029447278
0000b0 24 08 63 3e e6 dc bc be 1e 7b 31 3e 2e d7 02 bf
       0.22171074 -0.36887282 0.17332122 -0.5110959
0000c0 ce e0 32 3e 50 73 06 3d 37 ca d9 3d 5f 0c 82 be
       0.17468569 0.032824814 0.106342725 -0.25400063
0000d0 52 05 0e be 4f d8 98 bd 43 9c 94 3c c5 92 06 3f
       -0.13869217 -0.074631326 0.018140918 0.525677
0000e0 39 c7 9d 3c e2 8a 03 bd 6b 6e 01 3c 6d dc c5 bb
       0.019260036 -0.03211487 0.007899861 -0.0060382397
0000f0 98 fc fc 3d fe 1d 30 bd 60 3f 52 3c b2 79 82 be
       0.12352866 -0.042997353 0.012832493 -0.2548347
000100 ac f2 3a be 53 f6 85 be 68 8b f1 3d d5 04 fc bd
       -0.18256634 -0.26164493 0.11794168 -0.12305609
000110 4d 8d cd 3e d2 f3 b6 3e 06 8d 0c bc 9c 43 10 3d
       0.40146866 0.35732895 -0.0085785445 0.035220727
000120 1e ed 1a bf f2 d0 88 bd 24 eb 57 3e 25 42 41 be
       -0.6051806 -0.06680478 0.21085793 -0.18872888
000130 ff 4c 3b 3e ab 7f 6c 3c 05 37 95 3e 41 5e af be
       0.1829109 0.014434735 0.2914354 -0.34251598
000140 d8 e5 e9 3c 26 ca 09 3e 2c de 1d 3e aa b6 0c be
       0.02855198 0.1345602 0.15416783 -0.13741556
000150 13 4f 1c 3d ec ed 48 3e 60 54 9f 3d 86 f4 94 be
       0.03816135 0.1962201 0.07779765 -0.29092807
000160 89 a8 37 3e 5d 49 27 3e e1 19 9a 3e a9 ed 37 3e
       0.17935385 0.1633658 0.3009787 0.17961754
000170 09 b6 2c be dc b0 1c be 06 5b 3a bd f6 15 53 3e
       -0.16866316 -0.15301841 -0.045496963 0.20613846
000180 6c a7 da be 35 4e a4 3e 52 f8 9a be f8 f2 a6 3e
       -0.42705858 0.32090917 -0.30267578 0.32607245
000190 a8 28 62 be 35 90 9d 3e 10 be 21 3e 8b 5a 26 be
       -0.22085822 0.30774084 0.1579516 -0.16245477
0001a0 fa 37 32 3d 23 26 b0 3e 30 e5 42 bd 0c aa f7 bd
       0.043510415 0.34404096 -0.04758185 -0.12092981
0001b0 60 c8 1f bf 9f 1d 82 be 19 bc 88 3e a2 1a 93 bd
       -0.62415123 -0.25413224 0.26706007 -0.07182814
0001c0 84 cd 1c bc 1a ca 36 bb 65 a9 06 be ca a7 93 3e
       -0.009570483 -0.0027891458 -0.13150556 0.2883895
0001d0 5d a2 e0 bb 6e db 5c 3e b9 a3 4b be 80 97 38 be
       -0.0068552927 0.21568081 -0.19886674 -0.18026543
0001e0 2a 97 ab 3e 19 3d 80 3e c7 5b f6 3c cf 99 54 3d
       0.33513767 0.25046614 0.03007306 0.051904496
0001f0 6a fe 45 3e 34 7c 30 bd 32 69 f1 be cd b5 2d be
       0.19335333 -0.0430872 -0.4715057 -0.16963883
000200 d4 ea bb be b1 db 7b 3d e9 1f 82 bd f7 e6 04 bd
       -0.36702597 0.06148881 -0.06353743 -0.032446828
000210 5d e3 8f bc 07 73 bc 3e f6 47 9a bc 06 7b f0 3e
       -0.01756447 0.3680651 -0.018833142 0.4696886
000220 0b 9e 97 bd 68 8a 5e 3e e6 d8 3a be a1 16 b3 bd
       -0.07403191 0.21732485 -0.18246803 -0.087445505
000230 c5 61 64 3e fc e5 68 3e 8b 80 ec bd fa fa 83 be
       0.22302921 0.22743982 -0.11547955 -0.25777417
000240 48 dc fc 3d 15 f5 58 3c 18 e0 3b 3d e6 af 44 3e
       0.12346703 0.013242026 0.04586801 0.19207725
000250 15 6c 88 be 24 7f b9 be 9f 6b 78 3d c9 71 a3 be
       -0.2664496 -0.36229813 0.06064951 -0.3192275
000260 b6 75 49 be a3 b7 56 bf 62 24 55 be dc 62 af 3d
       -0.1967381 -0.8387396 -0.2081466 0.08563778
000270 68 bb 13 be c3 fd c2 bd a6 4c ad bd aa 07 80 3e
       -0.14426959 -0.095210575 -0.08461885 0.25005847
000280 4d 60 b8 3d 1c d1 f4 3c 3f 1d 7a bc fd 1d 09 3f
       0.09002743 0.029884867 -0.015265762 0.53561383
000290 ba ef 97 bc 22 6a 5e bd 18 4e 9a bd 23 d8 84 bb
       -0.018546928 -0.054300435 -0.075344265 -0.004054086
0002a0 ed 5d 1a 3c 7a e6 39 bc 07 2a de bb 6a da 6d bf
       0.009421808 -0.011346454 -0.0067799124 -0.929114
0002b0 aa 10 61 be 36 b3 14 3e f2 70 04 be 5a 18 9b 3e
       -0.21979013 0.14521489 -0.1293371 0.30292016
0002c0 24 3b 89 bd 76 29 9c 3c 75 31 4c 3e cb 78 3b 3e
       -0.06700733 0.019062739 0.19940741 0.18307798
0002d0 96 c6 d0 bd 97 bd 06 3f d4 86 12 bb db 9c 22 3c
       -0.10194127 0.5263304 -0.0022358196 0.009925093
0002e0 73 92 1b 3e 4a 9a 22 3e e6 55 10 3c e9 d3 36 be
       0.15192585 0.15879169 0.008809542 -0.17854275
0002f0 4c 69 17 3e a1 d6 40 be d6 b5 3c 3e 20 76 6e be
       0.14786261 -0.18831874 0.1842874 -0.23287249
000300 4a 02 b6 3d 5b 92 61 3e 2c f5 36 3e 16 bd b6 3e
       0.08887155 0.22028486 0.17866963 0.35691136
000310 25 63 8a bd f1 42 73 3e 38 18 3f bf 1b d1 93 be
       -0.067571916 0.23756005 -0.7464633 -0.28870472
000320 78 0d 04 be 7a f1 34 bd c3 d5 77 bd 96 2b a4 3d
       -0.12895763 -0.044175602 -0.060506593 0.08016126
000330 a1 f8 a2 3e 77 23 91 be 96 d6 1d bd c5 79 fb 3e
       0.31830314 -0.2834737 -0.038534723 0.4911634
000340 d2 5b fb bd e1 c6 e3 bd 8a 7c 9c 3e a0 3f 93 be
       -0.12273373 -0.111219175 0.30563766 -0.2875948
000350 de 29 86 3e c3 44 d9 be 48 cd b6 3d f0 b8 8c bc
       0.26203817 -0.42435274 0.08925873 -0.017178029
000360 6e 5d 64 be 18 30 c3 3e 83 bd 1b bc 6e ea d6 3c
       -0.22301266 0.3812263 -0.009505632 0.026234832
000370 ff f0 45 bd f6 22 61 3d 70 e0 85 bd 21 33 b7 3e
       -0.048325535 0.054964982 -0.06536949 0.35781196
000380 79 0f cb bd 72 5c 2c bf 7b 3c a4 3e bc 89 8d 3d
       -0.099150605 -0.6732856 0.32077393 0.06911036
000390 ff a4 f5 3d bd 88 99 3d f5 51 79 3d 64 db 95 3e
       0.11994361 0.07496784 0.060869176 0.29268944
0003a0 73 91 f2 3c 65 d0 aa 3b c6 01 a8 bd ef e4 89 bd
       0.029610371 0.005212831 -0.08203463 -0.06733119
0003b0 06 8a e3 bd 43 b4 7f be c4 3d 1f be 2e 32 8b 3e
       -0.1111031 -0.24971108 -0.15550905 0.27186722
0003c0 3a 6e 66 3e 8c ca 31 bd 5d f7 07 3e 68 16 c9 3d
       0.22502986 -0.043406054 0.13277955 0.09818727
0003d0 3c fa a5 bd 2b f1 bb 3d ea 40 d3 3d 43 da 75 3e
       -0.08104369 0.091768585 0.10315116 0.24009041
0003e0 04 b4 83 3e f6 16 6a bd 80 ea 4e 3c c7 24 25 3e
       0.2572328 -0.057150804 0.012629151 0.1612731
0003f0 34 bd 3b be 8e b2 8a be 80 62 79 3e d6 32 a2 bd
       -0.18333894 -0.2708935 0.24353981 -0.079198524

network.0.bias f4 [64]
000000 49 b8 8f 3e e5 f6 85 bc e3 c5 89 3e 02 c2 93 be
       0.28070286 -0.01635308 0.26908788 -0.28858954
000010 1e 79 03 be 53 48 6b be 63 66 c6 be ae 10 04 bd
       -0.12839171 -0.22976808 -0.3874999 -0.03224247
000020 ea dd 3b 3e 6c 96 6d 3e 4e 8d 99 3e 39 98 b3 be
       0.18346372 0.23201913 0.2999062 -0.35077074
000030 05 63 80 3c 80 57 a4 3d c9 17 7b 3e 5e de 05 3e
       0.015672216 0.08024502 0.24520792 0.13073108
000040 c8 50 20 3e 4a a7 98 3e 70 98 af be f8 d5 88 bd
       0.15655816 0.2981513 -0.34295988 -0.06681436
000050 d3 d7 83 be 5a 68 47 3e 4b 95 91 3e 80 5e 4f be
       -0.25750598 0.194734 0.28434214 -0.20250893
000060 27 7b ff bd 8f ae f2 bd c6 a2 98 be 2d c7 41 3e
       -0.12474661 -0.11849701 -0.29811686 0.18923636
000070 8c a2 06 3e a1 2e 7f bd 4d 1c 8e 3e 28 f4 b5 bc
       0.13147944 -0.06230033 0.27755967 -0.02221115
000080 e9 85 ce bd cc 21 90 bb ee 06 4d be 11 b8 48 be
       -0.10084135 -0.00439856 -0.20022175 -0.19601466
000090 35 8d f4 3d ce f1 9e be 1d 6d 07 3e 3d 68 05 3e
       0.119409956 -0.31043857 0.13225217 0.13028045
0000a0 a9 9c 96 be 09 10 97 3e a9 7c 40 3e 8a 5e 60 3e
       -0.29416397 0.2950442 0.18797554 0.21911064
0000b0 b8 49 a1 bc 6b f6 a8 bc 6d 6a 3b be 97 4c 0c 3d
       -0.019688472 -0.020625314 -0.18302317 0.03425273
0000c0 fa de 93 be d5 5a 9e be e7 57 77 be 8f 99 6c 3e
       -0.28881055 -0.30928674 -0.24154626 0.23105453
0000d0 84 62 af be 87 49 34 be 66 4f da 3e b4 11 32 3e
       -0.3425485 -0.17606173 0.426387 0.17389566
0000e0 28 3f 95 3e af b7 09 3e 20 96 20 be ac 76 4f 3e
       0.29149747 0.13448976 -0.15682268 0.20260113
0000f0 30 5a 5d bd ac 64 df bd 73 47 ca bd 47 87 47 3e
       -0.054041088 -0.109078735 -0.09876909 0.19485198

network.2.weight f4 [32, 64]
000000 2c ab d4 be 60 b0 dc be 7b 7e f4 be 34 90 92 bd
       -0.41536844 -0.43103313 -0.47752747 -0.07156411
000010 5b 44 ca 3d 35 3d 47 3e eb 02 3c 3f 9f 1e 8e 3e
       0.09876319 0.19456942 0.7344195 0.27757737
000020 4f b5 d2 bd 19 db 74 3c 3a 35 1c 3e c5 a7 cc be
       -0.10288488 0.014944815 0.1525468 -0.39971748
000030 d0 a3 8d be b2 1d c1 be cf 99 a2 be d8 a0 21 be
       -0.27664042 -0.37717968 -0.31757972 -0.15784013
000040 6c bf 71 bb f6 f8 66 be 54 78 54 3f ba e5 c4 be
       -0.0036887778 -0.22555909 0.82996106 -0.38456517
000050 b3 50 00 3f 7c af ee bd e3 45 f9 3e 7a 3c c1 bd
       0.5012314 -0.11654565 0.48686132 -0.09435363
000060 00 89 34 bd 75 16 c4 3e a0 ce 8e bd d2 e7 72 3d
       -0.044075966 0.38298383 -0.06973004 0.059303112
000070 fa de 0a bd aa 6a c7 3e 40 5a cb be 88 5e 80 bd
       -0.033904053 0.38948566 -0.39717293 -0.062680304
000080 62 3b b8 be 65 53 16 be 10 ef 76 be 2b 38 e3 be
       -0.35982805 -0.1468025 -0.24114633 -0.4437879
000090 48 0b c4 bd 8e 55 17 3f f2 6b ca 3d ac 4c 18 3f
       -0.09572464 0.5911492 0.0988387 0.5949199
0000a0 9e ca cc 3d 2f fa 04 bf 81 6f a7 be 63 68 66 be
       0.09999584 -0.5194425 -0.32702258 -0.22500758
0000b0 ce 17 36 bd 1b 5a 52 be 3c ba 91 3e 88 98 53 3e
       -0.044456296 -0.20542185 0.28462398 0.20663655
0000c0 17 a6 dc bd 8e 74 e0 3e 1e b1 e2 3d 7c 4f fa bd
       -0.107738666 0.43838924 0.11068939 -0.12222192
0000d0 9d 23 dc 3e f5 82 19 be ae 04 2b 3e 3a 40 e8 bc
       0.4299592 -0.14991362 0.16701004 -0.028350938
0000e0 e5 2e 11 be 80 86 80 bb 45 a9 d3 be b4 cd 99 bd
       -0.14178045 -0.0039222836 -0.4134008 -0.07509938
0000f0 82 cf a2 3e 2a b2 5f 3e a1 77 d4 3e 31 29 61 be
       0.3179894 0.21845308 0.4149752 -0.2198837
000100 c3 dd d3 bd 24 3c a9 be f3 4f 38 be ec 4f 94 3d
       -0.10345032 -0.33053696 -0.17999248 0.072418064
000110 e3 fb 8b 3e fe 8b 6c bd 17 12 14 bd 8b 82 5b 3f
       0.27340612 -0.057750694 -0.036150064 0.8574607
000120 c6 e6 b9 3e 32 65 60 bb eb e5 43 3e 18 42 8d be
       0.3630888 -0.0034240005 0.19130675 -0.27589488
000130 35 df c7 be 05 ec 00 be 64 41 fe 3c 48 bc 89 bd
       -0.3903748 -0.12590034 0.03103704 -0.06725365
000140 fe 8c 4d be 95 83 2f 3c b1 2b f5 bc 90 ce 1b bd
       -0.20073316 0.010712524 -0.02992806 -0.03803879
000150 22 f3 90 3d c6 62 e0 bb d2 08 9d 3e ae 72 3c be
       0.07077624 -0.006847712 0.30670792 -0.18403122
000160 c8 8c f3 bd e5 74 63 3c 68 3e 4c bd 34 5a 0a be
       -0.11892086 0.01388285 -0.049864203 -0.13510972
000170 ca 8e a2 3b 5a 7e f7 3c 0a 77 b4 bd 30 e4 2b bf
       0.0049608694 0.030211616 -0.088117674 -0.6714506
000180 13 6b 33 bf ad 33 ad 3c 30 8b 4c be f4 4a f0 be
       -0.7008526 0.021142805 -0.19974971 -0.46932185
000190 b6 4a b7 3e cf d6 98 3d 8c b8 bf 3e c7 b2 9b 3e
       0.35799187 0.074628465 0.37445486 0.30409834
0001a0 01 bf 75 3e e3 ef 17 3d b3 c4 b3 be 96 f9 31 be
       0.23998643 0.03709401 -0.35111007 -0.17380366
0001b0 fc d7 01 3e 63 06 c5 3c 4a 2b fc 3e 0f 34 d9 3c
       0.12680048 0.024050897 0.49251777 0.026514081
0001c0 98 d1 af be bb 47 6c bc f2 93 5c bd 32 31 96 be
       -0.34339595 -0.014421399 -0.05385203 -0.29334408
0001d0 bc 35 9c 3e 8a d8 07 bf a1 21 4d 3e 22 48 1d 3e
       0.30509746 -0.5306479 0.2003236 0.15359548
0001e0 72 d8 2f 3e 17 09 07 bf 1a 3d a2 3e 54 11 99 be
       0.17172411 -0.52748245 0.31687242 -0.29896033
0001f0 bc 9d 03 3f 8d e5 e6 bd 4e de a9 3e 57 a4 95 3e
       0.5141256 -0.11274252 0.33177418 0.29226944
000200 19 fe 04 3e 30 0d e3 3d 8d ca 17 3e e8 0c 6a 3e
       0.12987556 0.110865 0.1482336 0.22856486
000210 1a 0f 47 be 9f b1 85 be 19 60 f0 be 3a d1 08 bf
       -0.19439355 -0.26112077 -0.46948317 -0.53444254
000220 03 00 f6 bc b1 dc 42 3e 47 d7 94 be 23 73 60 3e
       -0.030029302 0.190295 -0.29070494 0.21918921
000230 55 84 b9 3e c4 40 56 be ce d4 cd 3e 40 13 6b be
       0.36233774 -0.20923144 0.4020142 -0.22956562
000240 85 9b 39 be 3d bd 03 3e ca 7f 8f be 3e 74 12 3d
       -0.18125732 0.12865157 -0.28027183 0.03575539
000250 e1 dd 2d 3e bd e2 8b 3d 88 d3 a7 be 39 6d af 3e
       0.16979171 0.06830356 -0.32778573 0.34263018
000260 a1 fb 80 3d f7 11 b7 3e 79 f4 76 be 6d 03 fa 3d
       0.062979944 0.35755894 -0.24116696 0.12207685
000270 fb 11 93 3d 64 3e 5b be a2 4a 85 be 4f a5 a4 3d
       0.07181164 -0.21410519 -0.26033503 0.080393426
000280 44 b9 ee 3e 94 70 04 be ea 98 47 3e 32 55 81 3e
       0.4662572 -0.1293357 0.19491926 0.2526031
000290 81 1d 3e 3e 0a 98 c7 3c bd 98 25 be ed be 35 be
       0.18565942 0.02436449 -0.16171546 -0.17748614
0002a0 06 40 62 bd f1 81 30 3e 98 e8 01 bd 4f 7e c4 3e
       -0.05523684 0.17237069 -0.03171596 0.38377616
0002b0 71 1d da 3c d2 77 55 3d db 7b f2 bd 30 46 62 3e
       0.026625367 0.052116223 -0.1184003 0.22097087
0002c0 e0 b8 d8 3e c6 d1 85 3e c9 29 75 bd e5 8b 8f be
       0.42328548 0.26136607 -0.059854303 -0.2803642
0002d0 64 26 9e be 3e ff 1d be 67 42 0a be 3c f1 12 3e
       -0.30888665 -0.15429398 -0.13501893 0.14349836
0002e0 d5 a6 21 3e 94 f6 e1 3e f7 4c 99 3e 27 84 03 be
       0.15786298 0.44133437 0.29941532 -0.12843381
0002f0 a8 2d f1 bc c5 86 ac 3e 32 d8 78 3d af f8 36 3e
       -0.029440716 0.3369657 0.060753055 0.17868303
000300 14 11 ab bd 75 69 4b 3e d1 f6 0d 3e f4 fc 1a 3e
       -0.08352867 0.19864447 0.13863684 0.15135556
000310 54 aa b8 be 6e 2c 9a bd 09 00 99 bd e1 7b 18 be
       -0.3606745 -0.075280055 -0.0747071 -0.14891006
000320 63 4e 49 bc 36 4e ad bd d7 fa 67 be 9d a9 07 3f
       -0.012286755 -0.08462183 -0.22654282 0.52993184
000330 61 23 7f 3e 62 a2 e8 3d 42 99 6b 3e 9b 35 bc 3d
       0.2491584 0.11359097 0.23007682 0.09189912
000340 47 26 dc 3d 91 51 48 3c 5a 2b d2 bc 60 e4 91 3d
       0.10749488 0.012226478 -0.025655437 0.07123637
000350 33 b3 61 be c9 69 a8 3e 86 9c e5 be c5 2b 7a 3c
       -0.22041015 0.32893208 -0.4484598 0.0152692245
000360 cf cc 9c 3e a3 3e 97 3d 8a 75 5d be 14 30 52 be
       0.30625007 0.07384994 -0.21626869 -0.20526153
000370 f9 5f 69 3e c5 67 04 3e e7 78 0c be 7f 76 fa 3e
       0.22790517 0.1293021 -0.13717996 0.4891853
000380 77 d5 d3 3e 89 54 14 3e 4e dc 12 3e 89 fa 5c 3e
       0.41373798 0.14485373 0.14341852 0.21579947
000390 22 e8 a2 3e 03 82 b2 bd 99 46 92 be e1 15 af bd
       0.31817728 -0.08716204 -0.28569487 -0.08549095
0003a0 0a 96 02 3d 4c b5 48 3e ca d3 70 3c 3f cd 83 3e
       0.03188137 0.1960041 0.014698932 0.25742528
0003b0 a3 6f 57 3e 53 30 3c 3e 18 c0 c5 be 90 28 89 3d
       0.2103868 0.18377809 -0.38623118 0.0669719
0003c0 4c f4 9c 3d f2 b1 22 3e a8 16 95 be 1c 50 de bb
       0.076637834 0.15888193 -0.29118848 -0.006784452
0003d0 c6 62 47 be ed d6 37 be 74 8b 3a be d9 ec 61 bd
       -0.19471273 -0.17953081 -0.1821726 -0.055157516
0003e0 40 6d 25 3d 99 2c c3 bd c3 c7 e7 3e 78 e3 11 be
       0.040387392 -0.09529991 0.45269594 -0.14246929
0003f0 57 3d ad be 3b 89 2b 3e 90 19 b6 be f8 e0 9d 3d
       -0.3383586 0.16751568 -0.35566378 0.07708925

network.2.bias f4 [32]
000000 c1 c0 e7 3c 1c f7 31 bd 69 30 ad 3d 97 94 be bc
       0.028290154 -0.043448552 0.08456499 -0.023264213
000010 d9 a2 cf 3c 98 58 3d be 1c a5 98 3d fc 44 71 3d
       0.025346207 -0.18490827 0.07453367 0.05890368
000020 e7 42 9d bd 76 e6 25 3c 45 10 ce 3b e5 b1 f9 bc
       -0.07678776 0.010125747 0.0062885606 -0.030480335
000030 8d df 16 3d 43 ef d2 ba 2e f1 10 3e a4 4f 07 be
       0.03683429 -0.0016093034 0.14154503 -0.13213974
000040 32 6c 7b 3d ff fa 0f 3d 39 c7 db 3d 3b 87 b0 3d
       0.06138248 0.035151478 0.10731358 0.08619543
000050 e4 b0 54 be fa 88 c0 3d 61 a0 2f bd 65 77 30 3d
       -0.20770603 0.09401126 -0.04287756 0.043082613
000060 65 29 b1 3d 48 ad 72 bd fb f5 74 bd 9b f2 fe bd
       0.086504735 -0.059247285 -0.059804898 -0.12448617
000070 32 80 4f bc 0c f0 56 bc f0 72 a2 3d 5a c4 18 bd
       -0.0126648415 -0.013118755 0.07932079 -0.03729663

network.4.weight f4 [1, 32]
000000 df 43 31 3f aa cd 02 3f bb 5c a2 be 29 15 a7 be
       0.6924419 0.5109507 -0.31711373 -0.3263333
000010 d4 22 81 be d2 84 a0 3f bf 48 80 3e 1a 92 a3 be
       -0.25221884 1.2540534 0.250555 -0.31947404
000020 dc 26 33 3d e4 bb ab be 0d a3 e2 3e a8 ba 0f 3f
       0.04373823 -0.33541787 0.44265023 0.5614419
000030 5c f2 93 be 69 27 cc be bb 25 dd 3e ef 44 10 3f
       -0.28895843 -0.39873818 0.4319285 0.56355184
000040 2d 4f 0c 3f 59 ae 4d be ba ca 7e be 75 e9 8e be
       0.5480831 -0.2008604 -0.24882022 -0.2791249
000050 38 79 60 3f 01 94 7d be 4d 3e 9a be ae 3c c2 3e
       0.87684965 -0.2476349 -0.30125657 0.3793692
000060 3a dc 84 be 2e 6c 64 3f 38 e0 c6 be e0 7e 16 3e
       -0.2594927 0.8922757 -0.3884294 0.14696836
000070 a8 f3 f0 3e 61 55 01 3f 65 c3 a4 be 47 85 15 3f
       0.47060895 0.505209 -0.32180324 0.5840649
