mlp_sigmoid_model.pth (torch, 13868 bytes, 5 tensors)

network.0.weight f4 [64, 9]
00000000: b030 39be f3c2 babe 613d 803e cb79 ccbc
00000010: 3272 02bc ef85 0cbd 17fa c0be 4749 003e
00000020: 84ff 903c 60a8 3c3e ba10 8a3d 41bc 3239
00000030: 2893 113e bb25 e23d 03be 67be d457 acbe
00000040: 5930 f7bd 3711 c13d 9fa8 f5be 1e7d 85be
00000050: ef45 90be 16a0 953b 4998 96be 431e 813d
00000060: 3f08 bc3e d57f 1dbe 6458 823d a9d2 a93d
00000070: 38c7 73be cfd5 b03d c289 263e 3e86 0abd
00000080: c40a 1dbe 0734 aabd 4223 b4bd 0511 9dbd
00000090: 906f 42bf c855 6abe 5de9 87bd 9992 153e
000000a0: 25b5 fb3d b1fa 4ebe f012 513e e1ea 8bbe
000000b0: 9ad8 833e 4fe3 5a3f 4e5b 1c3e b125 5e3e
000000c0: c13c 283e 9f7e ab3d 1d23 493e a735 343d
000000d0: 2d38 1bbe 02aa cebd 9c6a a33d f0f6 8dbd
000000e0: 709a 2ebe 80e0 5ebc 481a 843d 5ea5 d5bd
000000f0: 2c06 b33d dceb 31be e82a 103d f50e eabc
00000100: 1399 8abe 8f20 f03d a37b 593d b9df 1e3e
00000110: bc79 933e 8f30 0e3c 3af8 e5bc 31f3 82bd
00000120: 1e47 913e 4477 c63c c953 39bd 6ce3 00be
00000130: f62f 6abe 4e47 b23c f002 b43e dd7c 883e
00000140: a9dc cdbe 1597 1bbf 7972 d53e 4e4c 3b3e
00000150: fcdf 86bc 5b6c 413d d8be bc3d 7e48 bb3c
00000160: 6c8a 9c3d 13b6 5dbd f17d 6fbe 310c 11be
00000170: 6820 b6be fcc9 9ebc 1677 fc3d 10f9 d93e
00000180: e6d7 ee3d 0155 62be d654 c8be d256 8c3e
00000190: 3c06 033f 8b27 033e e8d7 ec3d 6d74 5d3e
000001a0: 6ba5 85be 569f a23e 06a0 a0be bd4e 8cbc
000001b0: fc77 67be 5443 123e 8c39 19bf 07a5 d73c
000001c0: 0348 123e 472d 30bb 1eda 9bbd eb0f 103e
000001d0: b642 12bd 2adb 163f 0f4a 95bd 1fab 8dbc
000001e0: e4eb 9abd af7d 0c3e 2687 0ab9 041e 693e
000001f0: fe72 14be c662 32be 3d47 5bbe 5483 d5be
00000200: 798b f23e a449 623c 13bd 803c 1efa a7be
00000210: 449f 23be 632b 12be 7329 103e 2501 c6be
00000220: dda2 53be d2d1 62be e3ad 1e3e e84f 853e
00000230: 3680 54be 9ecd 023e e600 c03e d964 5cbe
00000240: 1d07 d1be 26e6 4fbe 5e56 d63e ad9d c23d
00000250: bc6e 79bd 4cc1 a33e 0860 68bd ada6 26bd
00000260: 7b38 c23c b049 1b3e 0709 03bf ba78 c0bd
00000270: a61f 5f3e 9636 f5bc e729 2b3e d184 50bd
00000280: b742 3e3e 2ae4 a3bd 89bd 173e ed14 073f
00000290: 8be8 df3d c6dd 0a3e 896d bb3d 4e62 15be
000002a0: ca7e 95be c958 5a3e fe0d 24bd b92a 653e
000002b0: 25d9 febd f406 e83d 0fd3 5abe 3d1b 853d
000002c0: 9930 70be fcd5 07be da92 1a3e 320f d1be
000002d0: f206 9fbc c5d2 86be 18b9 df3e fe61 ef3d
000002e0: d911 a63c e8b7 f9bd cabe 4b3d 58ba 9abc
000002f0: 92d7 233e 2622 a83e c727 6d3e ad12 3c3c
00000300: c0e8 9bbd 918d 1d3e 5a4f c33d afcd 2dbc
00000310: 2cb7 f2bc cdcc 503b 4f5f 2cbf 385c b3be
00000320: a44a f1bd 9f49 58bb ebee f83d ee6f b1be
00000330: f093 7d3e e514 6bbe 4b7f dc3d 335e 20be
00000340: 143f 9abe 2afa ae3e 0fc3 1abd e869 f5bd
00000350: 3a3c 353d e0f2 a73d 6a5d d2bc 4478 94be
00000360: 6531 08bf f28d cdbd 2112 853e 96b3 47be
00000370: dc1e c23e ce19 013d e1ae 59be 7c4c 30be
00000380: 2d4c 0b3e 84a8 f1bc a191 863e 0dec 1bbf
00000390: c5e3 433d a7f2 8ebd 6bf0 613c 6758 f5bd
000003a0: ea38 d93c 06d1 25bd d567 e43e 2daf 92bd
000003b0: 1a95 87be f947 c53e 56d9 253c ccb7 75bd
000003c0: e72c 27bb 67dd b5bd e97b 853e ea41 abbe
000003d0: 37bf 913e 213d 0f3e 7f90 743e 465e 1c3e
000003e0: c8d1 013e 9c50 c3bd 502a 803d e386 80be
000003f0: a2d9 d9be 7975 e73e 17a6 a53e 95d7 8ebe
-0.18084979 -0.3647686 0.25046828 -0.02496042 -0.007961797 -0.034307417 -0.37690803 0.12527953
0.017699964 0.18423605 0.067414716 0.00017045533 0.14216292 0.11042353 -0.22631077 -0.33660758
-0.120697685 0.094271116 -0.4798021 -0.2607202 -0.28178355 0.004566203 -0.2941306 0.063046
0.3672504 -0.15380795 0.063645154 0.08292133 -0.23806465 0.08634531 0.16263488 -0.03381943
-0.15336138 -0.08310705 -0.087957874 -0.07669262 -0.7595148 -0.22884285 -0.066363074 0.14606704
0.1229041 -0.20212819 0.2041738 -0.27327636 0.2575119 0.85503095 0.15269205 0.21694066
0.16429426 0.083737604 0.19642301 0.04399648 -0.15158148 -0.1009102 0.079793185 -0.06931865
-0.170511 -0.01360333 0.06450325 -0.10431932 0.087414116 -0.1737513 0.03519717 -0.028571585
-0.2706991 0.1172496 0.053096425 0.15515031 0.28803813 0.008678569 -0.028072465 -0.06394041
0.2837457 0.024226792 -0.04524592 -0.12586755 -0.22869858 0.021762516 0.3515849 0.26657763
-0.40207413 -0.6077741 0.41688898 0.18290827 -0.016464226 0.047222476 0.09216088 0.022861715
0.076435894 -0.054128718 -0.23387887 -0.14164807 -0.355716 -0.019383423 0.12327401 0.42572832
0.11662273 -0.22102739 -0.39127225 0.2740999 0.5118139 0.12808053 0.11564618 0.21626444
-0.26102766 0.3176219 -0.31372088 -0.01712739 -0.22604364 0.14283496 -0.59853435 0.026323808
0.14285283 -0.0026882456 -0.07609962 0.14068572 -0.03570815 0.5892817 -0.07289516 -0.017293511
-0.07564524 0.1371982 -0.00013211052 0.22765356 -0.14496991 -0.17420492 -0.21413894 -0.41701758
0.47372034 0.013811503 0.015715158 -0.32808012 -0.15978724 -0.14274363 0.14078312 -0.38672748
-0.20667596 -0.22150353 0.1549602 0.26037526 -0.20752034 0.12773749 0.37500685 -0.21522845
-0.4082574 -0.20302638 0.41862768 0.095027305 -0.06089662 0.3198341 -0.056732208 -0.0406863
0.023708573 0.15164828 -0.5118565 -0.09398027 0.21789417 -0.029933255 0.16715203 -0.050907914
0.18580137 -0.08002503 0.14818396 0.52766305 0.10933026 0.13561162 0.091517515 -0.14588282
-0.29198295 0.21322931 -0.040052406 0.22379579 -0.12443761 0.11329451 -0.21369575 0.06499336
-0.23456039 -0.13265222 0.15095082 -0.40831906 -0.019412491 -0.2633268 0.43695903 0.116886124
0.020272182 -0.121932805 0.049742498 -0.018887684 0.16000202 0.32838553 0.23159705 0.011479062
-0.07612753 0.15386035 0.095366195 -0.010608121 -0.029628359 0.0031860352 -0.6733293 -0.35031295
-0.11781815 -0.0033002866 0.12154945 -0.34655708 0.24763465 -0.2295719 0.10766467 -0.15660934
-0.3012625 0.34175235 -0.03778368 -0.11983091 0.04424689 0.082006216 -0.025679309 -0.28998005
-0.5320037 -0.100368395 0.25990394 -0.195021 0.3791417 0.03151875 -0.21258117 -0.17216676
0.13603278 -0.0294993 0.2628298 -0.6090706 0.04782464 -0.06979876 0.01379023 -0.11979752
0.026516397 -0.040482543 0.44610468 -0.071623184 -0.26480943 0.38531473 0.010122618 -0.059989735
-0.0025508942 -0.0888012 0.26071098 -0.33448726 0.28466198 0.13988163 0.23883246 0.15270337
0.12677681 -0.095368594 0.062580705 -0.2510291 -0.42548853 0.45206812 0.3235328 -0.2789885

network.0.bias f4 [64]
00000000: 1110 c03e 2422 6e3e 6904 913e 5fd2 4dbe
00000010: 0852 373e 68f3 73be 6642 65be 3296 463e
00000020: 9465 e3bd b643 bebd 5aec c93b ffef b8bd
00000030: 9dbf 263e 03dc 4ebe 015a 6f3e 73dc 3d3e
00000040: 1816 aebd 2a9a 8c3e 3b03 c2be 0bff 053e
00000050: 16a9 3bbe 4531 483e f7a6 4e3e 5e40 c63e
00000060: f53f 17be 32f5 8e3e d65e 943d e7a5 38be
00000070: ca7d 2dbe ae5b de3e c259 47be b87f 6f3e
00000080: 1af4 3cbe c95e 3b3e a8fb dabd a71c 9e3e
00000090: 02d0 873e 3620 8fbc 3867 203e 2e60 133d
000000a0: cc01 15be 70f7 303d 87f6 7a3e 7c76 a63e
000000b0: 3740 453d c7ff a63e 58d9 1c3e 59f6 663d
000000c0: 277c 33be 973c 93bd f9b4 02be 4558 85be
000000d0: a871 91be 000b d93d ba7f 7bbe f179 82be
000000e0: e759 4a3e 7435 443d e4d2 103e db53 1dbe
000000f0: ff1b c0be 7fbb efbe ccb4 adbd cab2 67bd
0.37512258 0.23255211 0.28323677 -0.20099781 0.17902386 -0.23823321 -0.2238861 0.19393232
-0.11103359 -0.092902586 0.0061622085 -0.090301506 0.16284032 -0.20201115 0.23374178 0.18541126
-0.08500308 0.27461368 -0.3789309 0.13085572 -0.1832622 0.19550045 0.2018088 0.38720983
-0.14770491 0.27921444 0.07244651 -0.18032037 -0.16942516 0.4342932 -0.19467834 0.23388565
-0.18452492 0.18297876 -0.10692531 0.30881235 0.26525885 -0.017471414 0.15664375 0.035980396
-0.14551467 0.043204725 0.24508105 0.3251227 0.048156943 0.32617018 0.15317285 0.05638728
-0.17527829 -0.07189291 -0.12764348 -0.26043907 -0.28407025 0.10597801 -0.24560443 -0.2548366
0.19760858 0.04790254 0.14142948 -0.1536402 -0.3752136 -0.46822736 -0.0848175 -0.05656699

network.2.weight f4 [32, 64]
00000000: d310 66be ce07 9bbd 0ab6 71be ac15 1ebe
00000010: 477f 5abe 02ea 5abd 8e79 77be 182e b0bc
00000020: 54d1 28be 2f89 113e 94b5 7abe 08ba 133d
00000030: c02a 4d3d 789d 3d3d 1ce2 42be 7617 ff3c
00000040: 0ff4 343e 9a34 31be a681 84be b0c3 2fbe
00000050: 05a6 1e3e 40d6 0bbe 3e9e d03d a3d1 3abe
00000060: 6593 403e a0d8 3a3e ff0b ef3c aef6 893d
00000070: e27e 5a3c 38a5 15be 5ec3 0a3e 10a8 cdbd
00000080: bbc9 593e d8dd 4ebd 4492 c23d 4148 2ebe
00000090: 0054 153a 0220 08bd b4fc 3abe a8a6 b1bd
000000a0: d4fa 75be 0460 ddbd b84c 2abe 7660 aebd
000000b0: fed8 26be 61a8 1c3e 4afa e53d d9c9 933c
000000c0: 5fda 4d3d a0bc 50be a24a 14be 673a 833d
000000d0: 88dc 633e 07ae 07be fd89 4b3e 8c3b f43d
000000e0: 86df a73d ea13 25be aecc 50be 35a8 5d3e
000000f0: d8a4 ef3d 9cbd 98bd e445 6e3d 930f d7bd
00000100: 3681 cdbd 5313 18be 7071 68be d05f 51be
00000110: aee2 6b3e 5f83 573e 70fe 2b3d eba4 d8bd
00000120: 50b0 43be e04b e0bd 3201 1dbe 42c7 61be
00000130: e8a8 debd 50f7 50be 8260 78be 2b8a 833d
00000140: ad56 f2bd 34dc 413e dbcb 85bd f0bd 39be
00000150: 375e cfbd 6ae4 76be 748c 5e3e 8f27 a43d
00000160: 7085 cf3c 001b ffbd b5ba 75be 7701 643d
00000170: 3bde 2dbe c09f 5ebd fde2 b73d e9ff b03d
00000180: e068 413c 21ee 85be 8ef5 603e 8a35 a9bb
00000190: 86b9 4fbe 3836 f8bd 9402 67be bcba 36be
000001a0: 6e07 20be 5421 18bd d5a5 82be 52e1 d53d
000001b0: 703a 4a3e b861 4ebd 52ef 5dbe cdb7 353e
000001c0: ed49 613e e899 44be 9465 3cbe fce3 5d3c
000001d0: 00ee b2bc 694c 643e cc94 b23d e8b5 0bbe
000001e0: 36cd 7d3e b886 7abe f9dd 2ebd 2f4d fcbd
000001f0: efbc e83d 7a49 10be 436a f03c ddd4 73be
00000200: fe7f 4bbe a1d8 58be 3517 a0bb f702 3cbe
00000210: 3a37 d0be 6118 833e 5ce8 513e 4f86 b8bd
00000220: 8a78 c13e 7427 79be ece7 79be f5f4 2e3e
00000230: 17dc 793e d0ba 023f 917b 0abd ab68 723d
00000240: 168c 643d d383 42be 498e bcbd a635 57bd
00000250: 1a26 a03d ab8c 10bc 3112 5abe e900 b2bc
00000260: 7bc8 fabc c4e0 be3e 78de 933d 2530 5abd
00000270: 009c 203d 8aed 9e3c c789 853d df2b 46be
00000280: 7a09 c7be 3172 a5be f12a 923d 9719 0bbe
00000290: af78 8b3e a326 ad3e b981 483e 66c4 a73e
000002a0: 1577 87be 1b97 06bd 0d65 1d3d dad7 58bd
000002b0: 45fe 15be 5d1b a3be 1c4c 743e 4a00 853e
000002c0: c82f 303e 4f94 063e 4c3f 38bf 4250 aa3c
000002d0: 044f 703e 38d1 a43e 421a 51be 9727 a6be
000002e0: 6ae1 f9bd cb78 07bf 9bc8 183e 2710 c53e
000002f0: 311f 94be a8bf 47bf 3765 4d3d 1c96 963e
00000300: e82f 34be 4826 cd3d 9d70 633d 664b 64be
00000310: 9b8f 74be a471 083e 78f4 c33d 4a43 52be
00000320: de6a 16be 32cd 03be 7e80 65be d6b0 71be
00000330: 44e4 9dbd 6676 3fbe 0fe6 863d 7120 5dbe
00000340: 6cc0 5a3e 106c 06be aa56 423d f3c6 9cbc
00000350: 8e5a 0ebe 9b34 aebd ac74 993d 4dc9 ddbb
00000360: d2f1 6c3e dbdd 283e be6b 8b3d b7e0 37be
00000370: 695b 1a3c e05b 073e 0334 953d 7d5c 3cbd
00000380: 104d 8ebd fc87 113e 3e4a 48be adc1 32be
00000390: 1fe0 613e bb4b 61bc 8ba2 f23c a858 7dbe
000003a0: 4494 663d f8d1 ac3d 4c3f eb3d 9b54 31be
000003b0: 74c6 5ebe 37df d23d 3f5b 2abe 8ee7 14bd
000003c0: 5e1d 54be 04ec fabd 8c4e a53d 1317 5d3e
000003d0: 0c8d 27be 9287 84be 9e1c 483e 92c8 4ebd
000003e0: 63c3 b4bc 6424 dd3d ee11 703e 97b8 e73c
000003f0: 041e ee3b feba 563d 5596 71bc 2f6b 56bd
-0.22467355 -0.07569848 -0.23604599 -0.15437955 -0.21337615 -0.053445823 -0.24167463 -0.021506354
-0.16486102 0.14212488 -0.24483329 0.036066085 0.050089598 0.046292752 -0.19031566 0.031139117
0.17671226 -0.17305222 -0.25880164 -0.17164493 0.15493019 -0.13655949 0.10186432 -0.18244033
0.18806227 0.18246698 0.029180525 0.067365035 0.013335915 -0.14613807 0.13551089 -0.10041821
0.2126836 -0.050504535 0.09500554 -0.1701975 0.0005696416 -0.03323365 -0.18260461 -0.08674365
-0.24021465 -0.10809329 -0.16630828 -0.08514492 -0.16293713 0.15298606 0.112293795 0.018040584
0.050257083 -0.20384455 -0.14481595 0.06407624 0.22252095 -0.1324998 0.19876857 0.1192542
0.081969306 -0.16120878 -0.20390579 0.21646197 0.11701363 -0.0745804 0.05817212 -0.105010174
-0.10034411 -0.14851122 -0.22699523 -0.20446706 0.2303569 0.21046208 0.041990697 -0.105783306
-0.19110227 -0.10951972 -0.15332487 -0.22048667 -0.1087206 -0.20406842 -0.24255565 0.06422838
-0.11832938 0.18931657 -0.06533023 -0.18138862 -0.10125392 -0.2411057 0.21733266 0.08015358
0.025332183 -0.12456322 -0.23997004 0.05566546 -0.16979305 -0.05435157 0.089788415 0.08642561
0.011804789 -0.2615824 0.21968672 -0.005163853 -0.20285615 -0.121197164 -0.22559577 -0.17844671
-0.15627834 -0.03714116 -0.25517145 0.10443367 0.19748855 -0.05038616 -0.21673325 0.17745896
0.22000857 -0.19199336 -0.18398124 0.013543125 -0.021842003 0.22294773 0.08719787 -0.1364361
0.24785313 -0.24465454 -0.04269216 -0.12319409 0.11364161 -0.14090529 0.029347545 -0.2381167
-0.19873044 -0.21176387 -0.004885579 -0.18360506 -0.40667135 0.25604537 0.20498794 -0.09009992
0.37787277 -0.24331456 -0.24404877 0.17085631 0.24400364 0.51066303 -0.03380925 0.05918185
0.05579766 -0.189956 -0.09206826 -0.052541398 0.07819767 -0.0088226 -0.21296002 -0.02172895
-0.030613175 0.37280858 0.07220167 -0.05326857 0.039211273 0.019400377 0.065204196 -0.19352673
-0.38874418 -0.32313684 0.07137097 -0.1358398 0.27240512 0.3381854 0.19580735 0.32767028
-0.2645804 -0.03285895 0.038426448 -0.052940227 -0.14647777 -0.31856814 0.23857158 0.25976783
0.17205727 0.13142513 -0.71971583 0.020790223 0.23467642 0.3219087 -0.20420173 -0.3245208
-0.122011974 -0.5291869 0.14920275 0.38488886 -0.28930047 -0.7802682 0.050145354 0.294114
-0.175964 0.10017067 0.05552732 -0.22294387 -0.23882906 0.133246 0.09568113 -0.20533481
-0.14689204 -0.12871245 -0.22412297 -0.23602614 -0.07709554 -0.18697509 0.06586849 -0.21594407
0.21362466 -0.1312716 0.04744593 -0.019137835 -0.13901731 -0.085061274 0.074929565 -0.0067683817
0.23139122 0.16490881 0.068076596 -0.17956816 0.009421208 0.13218641 0.07285311 -0.04598664
-0.06948292 0.1421203 -0.19559571 -0.17456694 0.22058152 -0.013750966 0.029618522 -0.24740851
0.05629374 0.08438486 0.11486682 -0.1731743 -0.21755391 0.10296481 -0.1663637 -0.03635364
-0.20714328 -0.12252048 0.08071622 0.21590833 -0.16362399 -0.25884682 0.19542167 -0.050484248
-0.022065824 0.107979566 0.2344434 0.028286261 0.0072667617 0.052424423 -0.014745315 -0.052348312

network.2.bias f4 [32]
00000000: 8936 09be aa6a 13be 9166 d0bd 9dad ddbd
00000010: 6676 3d3c 3b1e b4bd f94d b93d 3d01 e53d
00000020: 4057 d53d 1ea2 e53d 7220 8abd 8c4c 723d
00000030: de1b 61be de70 97bd 1b23 d7bd 4004 dabc
00000040: 5617 c03b c5dd 47bd f646 cabd 334a 5fbd
00000050: 9eea f23d b225 9e3d 4ebf d4bd a7ba 9a3d
00000060: 4e6e 9abd 6b7f 0fbd 86bd 853d 2035 bdbd
00000070: e914 903d f89e a23d 5ef2 c43d ab14 833e
-0.1339971 -0.14396158 -0.10175813 -0.1082413 0.011563873 -0.087948285 0.09048075 0.11181877
0.10417032 0.11212562 -0.0674447 0.059155032 -0.21983287 -0.073945746 -0.10504743 -0.026613355
0.005862157 -0.04879548 -0.09876816 -0.05451412 0.11861156 0.077220336 -0.10388051 0.07555132
-0.0754057 -0.035033625 0.06530289 -0.092386484 0.07035238 0.07940477 0.0961654 0.25601706

network.4.weight f4 [1, 32]
00000000: 2876 eb3d 882b 823d c287 ecbe 09da da3c
00000010: 93cb c1be 85f2 d6be be6e d2be 9bd2 1bbe
00000020: 7182 8cbe 274f 5fbe cea0 313f cc65 84be
00000030: 7b9e 2d3f 29a6 c93e dc40 a83d 48c4 8ebc
00000040: 2ca8 6b3d 2aa9 e3be 05ea 00be 815f 0bbf
00000050: a0e5 c9be c521 f03e b940 603f 2707 72be
00000060: de98 223f 921c 0abf 4b84 0cbf f4af 323f
00000070: 3e7d 1b3d c5a6 13be 7f08 133f cb1f 283f
0.11497146 0.06355959 -0.46197325 0.026715295 -0.37850627 -0.41981903 -0.41100115 -0.15217058
-0.2744327 -0.21807538 0.69385993 -0.25858915 0.67819947 0.39384583 0.08215496 -0.017427579
0.057533428 -0.44465 -0.12589271 -0.544426 -0.39433002 0.46900764 0.8759876 -0.23635541
0.63514507 -0.53949845 -0.54889363 0.69799733 0.037961237 -0.14419086 0.5743484 0.6567351
