mlp_relu_model.pth (torch, 13838 bytes, 5 tensors)

network.0.weight f4 [64, 9]
0	0x3f96f58e	1.1793687
1	0x3f6a344c	0.9148605
2	0xbe39b639	-0.18135919
3	0xbe76893c	-0.24075788
4	0x3f034e20	0.51291084
5	0xbf2b190f	-0.6683511
6	0xbe6b6827	-0.2298895
7	0x3ed7ee3b	0.42173943
8	0x3ea72fbb	0.32653603
9	0xbf8f675a	-1.1203415
10	0x3ee4af0d	0.44664803
11	0x3cac5927	0.021038605
12	0x3ef896c5	0.48552528
13	0xbe90d2a0	-0.28285694
14	0x3ebf7387	0.37392828
15	0x3ed0a216	0.40748662
16	0xbd73e4bb	-0.059544306
17	0xbec2d7c5	-0.38055244
18	0xbe73417a	-0.23755446
19	0x3f4d96b3	0.80308074
20	0x3ed59e86	0.41722506
21	0x3f3443dd	0.7041605
22	0xbcae900e	-0.021308925
23	0xbf509147	-0.81471676
24	0xbf1d6d26	-0.6149467
25	0xbe7dea78	-0.24796474
26	0xbe720b17	-0.23637043
27	0xbefe2b66	-0.49642485
28	0x3f6ff623	0.9373495
29	0xbeac74bb	-0.33682808
30	0x3efa5778	0.48894858
31	0xbee6a2d1	-0.45046094
32	0xbea72ba7	-0.32650492
33	0xbd3d1e45	-0.046171445
34	0x3e9e4906	0.30915087
35	0xbe603c60	-0.21898031
36	0x3dc85f96	0.097838566
37	0x3dc33b2e	0.09532772
38	0x3f1ec14f	0.62013716
39	0x3f201eea	0.6254717
40	0x3e669dd4	0.22521144
41	0x3e373df6	0.1789473
42	0xbee0bd76	-0.43894547
43	0xbe964cb0	-0.29355383
44	0xbe9d57ca	-0.3073104
45	0xbf1efb54	-0.62102246
46	0x3dc00786	0.09376435
47	0x3f37386f	0.71570486
48	0xbeb5cdcc	-0.35508573
49	0xbe1f6968	-0.15567553
50	0x3f307a95	0.68937045
51	0xbdfd7086	-0.12374978
52	0xbd5840c1	-0.05279613
53	0x3ec40260	0.38283062
54	0xbe90febb	-0.28319344
55	0xbe639871	-0.2222612
56	0xbf0e5d03	-0.55610675
57	0x3f3ebf31	0.74510485
58	0xbef6d901	-0.48212436
59	0xbd54d83e	-0.051964037
60	0x3c1f4a30	0.0097222775
61	0x3f604683	0.8760759
62	0x3e1e4384	0.15455443
63	0xbe9414fe	-0.28922266
64	0xbb1b71d9	-0.0023718982
65	0x3eedcba4	0.46444428
66	0x3eaf53d2	0.34243637
67	0x3edc675a	0.430476
68	0x3e9f2478	0.3108251
69	0xbd3ec8fb	-0.04657839
70	0xbef73faf	-0.48290774
71	0x3e5330a7	0.20624028
72	0x3def4a20	0.1168406
73	0xbf6d7fdd	-0.9277323
74	0xbf118b51	-0.56853205
75	0x3ec0be87	0.3764536
76	0xbd1c2263	-0.03811873
77	0xbdb3c337	-0.08777469
78	0x3eb8abce	0.36068577
79	0x3dae28f4	0.08503905
80	0xbf448bcc	-0.76775813
81	0x3edc80c4	0.4306699
82	0xbe0f30e5	-0.13983496
83	0x3f44f409	0.7693487
84	0xbf7b6f98	-0.98217154
85	0xbf0c736e	-0.5486363
86	0xbe88c327	-0.2671139
87	0xbecd83df	-0.40139672
88	0xbe31e9b2	-0.17374304
89	0xbdbb2c5f	-0.091393225
90	0x3f321b0e	0.6957253
91	0x3eefdd33	0.4684845
92	0x3e52c384	0.20582396
93	0xbf1f57e5	-0.6224349
94	0x3f2cd0ef	0.6750631
95	0x3f22a659	0.63535076
96	0xbe822771	-0.25420716
97	0xbed6278b	-0.41827044
98	0x3ed8afac	0.42321527
99	0xbded3b02	-0.115835205
100	0xbf0aba5d	-0.5419062
101	0x3ed93f48	0.42431092
102	0xbf4a728f	-0.7908105
103	0x3ddfee78	0.10934156
104	0x3f0105b4	0.5039933
105	0x3e53b8f2	0.2067602
106	0x3f1f3638	0.62192106
107	0xbe561bf4	-0.20909101
108	0xbf3feb24	-0.7496817
109	0xbdd3f0c9	-0.103486605
110	0xbf859307	-1.0435494
111	0xbf0f26e8	-0.5591874
112	0xbf126db8	-0.5719867
113	0xbeb09218	-0.3448646
114	0x3bf73832	0.007544541
115	0x3f3ca376	0.7368692
116	0xbe8a9b43	-0.2707158
117	0xbeb1bdff	-0.34715268
118	0xbdcff0d6	-0.10153358
119	0x3f182224	0.59427094
120	0x3c3455fb	0.0110068275
121	0x3f1dc8c4	0.6163447
122	0x3f392b12	0.72331345
123	0xbc0f512a	-0.008747378
124	0x3eba2f59	0.36364248
125	0xbf3f2001	-0.7465821
126	0xbf18c932	-0.59682
127	0x3e8ab6d1	0.27092603
128	0xbf9b7b54	-1.2147012
129	0xbe29e0cd	-0.16589661
130	0x3f409d8a	0.75240386
131	0xbecdd066	-0.40198058
132	0x3c431791	0.011907474
133	0x3e9a58e0	0.3014593
134	0xbeaa48e3	-0.33258733
135	0x3e987cae	0.29782623
136	0x3e23ea20	0.1600728
137	0x3df09330	0.11746824
138	0x3f3a381e	0.7274188
139	0xbf21bf8d	-0.6318291
140	0x3eca6d0e	0.39536327
141	0xbc2475c9	-0.010037848
142	0xbddcacd7	-0.10775154
143	0x3b8ecc1d	0.0043578283
144	0x3f481cbc	0.78168845
145	0x3d902904	0.07039073
146	0x3e548dec	0.20757264
147	0xbe919300	-0.28432465
148	0xbf368bfb	-0.71307343
149	0xbf39b932	-0.7254821
150	0xbed86d12	-0.42270714
151	0xbe94ffdc	-0.29101455
152	0x3eeaba6a	0.45845348
153	0xbf2cb9c8	-0.6747098
154	0xbf487511	-0.7830363
155	0x3effb90c	0.49945867
156	0xbe937b06	-0.28804797
157	0x3bc390f5	0.005968208
158	0x3f56e1f8	0.8393855
159	0x3e98edad	0.29868832
160	0xbf8c896f	-1.0979441
161	0x3ed019f9	0.40644816
162	0x3eae85c7	0.3408644
163	0x3ee4d16b	0.44691023
164	0xbf41a153	-0.75636786
165	0xbf14a6ca	-0.58067
166	0xbedc00f1	-0.42969468
167	0x3ea91cfd	0.3302993
168	0xbe6bb1de	-0.2301707
169	0x3e297b67	0.1655098
170	0x3f2ececf	0.68284315
171	0xbee25bb9	-0.44210604
172	0xbf16ebb6	-0.58953416
173	0x3ec3aec7	0.38219282
174	0x3ecc69c9	0.39924458
175	0xbd7b4f53	-0.061354946
176	0xbf219072	-0.6311103
177	0xbeacffb9	-0.3378885
178	0x3ee7fc6f	0.4530978
179	0xbf1141b3	-0.56740874
180	0x3ec71a3e	0.3888721
181	0x3f32fade	0.6991404
182	0xbb96b1a3	-0.0045988127
183	0xbee95750	-0.45574427
184	0x3f1b57fe	0.6068114
185	0x3cc99e19	0.02461152
186	0xbedbdb5d	-0.42940798
187	0x3f08824a	0.53323805
188	0xbedb5cac	-0.4284414
189	0xbeadcff3	-0.33947715
190	0xbf3f8a50	-0.74820423
191	0xbd3dbd33	-0.046323013
192	0x3e08ad7c	0.13347429
193	0xbead3216	-0.33827275
194	0xbf449cfc	-0.7680204
195	0x3c7dd647	0.015492982
196	0xbd27f6e0	-0.041006923
197	0x3f793797	0.9735045
198	0xbf96bf33	-1.1777099
199	0x3ec8b8b3	0.39203414
200	0xbeaa57c2	-0.3327008
201	0x3f3386d0	0.7012758
202	0x3da15601	0.07877732
203	0xbedc625c	-0.43043792
204	0x3f479050	0.7795458
205	0x3e0a702f	0.13519357
206	0xbf1cc954	-0.612447
207	0x3e9e69b2	0.30940014
208	0x3e0f7515	0.14009507
209	0xbe97531a	-0.2955559
210	0xbf46840b	-0.7754523
211	0x3f3b841a	0.73248446
212	0xbe8bccd5	-0.27304712
213	0x3ec2c98e	0.380444
214	0xbeea006b	-0.45703444
215	0x3e9432c8	0.28944993
216	0xbf289062	-0.6584531
217	0x3eb4fcc1	0.35349086
218	0xbf396405	-0.7241824
219	0x3f476a7c	0.7789686
220	0x3f143678	0.5789561
221	0xbe4db691	-0.20089175
222	0xbe8de95e	-0.27717108
223	0x3e4617d4	0.19345027
224	0x3eaba62c	0.33525217
225	0xbc332ca8	-0.01093594
226	0xbf64a7c4	-0.8931849
227	0xbe0063c9	-0.12538065
228	0xbe0bbb9a	-0.13645783
229	0xbea185bc	-0.31547344
230	0xbe93327b	-0.2874945
231	0xbd5d026d	-0.05395739
232	0x3f667015	0.90014774
233	0xbdd30766	-0.103041455
234	0x3f3203f9	0.6953731
235	0x3f077724	0.5291617
236	0xbf58d891	-0.84705454
237	0xbd28efb3	-0.04124422
238	0xbdf15735	-0.117842115
239	0xbe19da36	-0.15024647
240	0xbef1f3a3	-0.47256193
241	0xbe4c11e5	-0.19928701
242	0xbd0ea188	-0.034822017
243	0xbf860688	-1.0470743
244	0x3e95a3e3	0.29226598
245	0xbd94b8bc	-0.07261798
246	0xbd975bbb	-0.07390543
247	0xbe8e22d3	-0.27760944
248	0x3ed4799a	0.41499025
249	0x3f138ae5	0.5763381
250	0x3eb302d7	0.34963104
251	0x3f11d72f	0.5696897
252	0x3f696fd5	0.9118627
253	0x3f65c970	0.89760494
254	0x3f523510	0.82112217
255	0xbe89fe67	-0.26951906

network.0.bias f4 [64]
0	0xbe82283e	-0.25421327
1	0x3e52a1de	0.2056956
2	0xbe0f7667	-0.1401001
3	0xbea41551	-0.32047513
4	0x3e3cfd0c	0.18455905
5	0xbd96f031	-0.073700316
6	0x3e4e3e4b	0.2014095
7	0xbeb4f336	-0.35341805
8	0x3ee1392a	0.43988925
9	0x3dc773c4	0.097388774
10	0xbc3c0edb	-0.011478151
11	0xbd5ca858	-0.053871483
12	0x3def712d	0.116915084
13	0xbc624890	-0.013811246
14	0x3e0446f9	0.12917699
15	0x3e0013aa	0.12507501
16	0xbe5de80e	-0.21670553
17	0x3ef8b3ae	0.48574585
18	0xbddaa3d0	-0.10675776
19	0xbe3a929a	-0.18219987
20	0xbe9210b4	-0.28528368
21	0x3d873162	0.06601216
22	0xbca94340	-0.02066195
23	0xbddd2166	-0.10797386
24	0xbe3271bb	-0.17426197
25	0x3d69deec	0.05709736
26	0x3ec9b58b	0.3939632
27	0xba963957	-0.001146118
28	0xbdb14a7f	-0.08656787
29	0x3d0daa75	0.03458639
30	0x3e264fc6	0.16241369
31	0x3db82a59	0.08992452
32	0x3c6524ba	0.013985807
33	0xbeb1f4f1	-0.34757188
34	0x3eab75fe	0.33488458
35	0xbcba90a9	-0.022774057
36	0x3df79bc6	0.12090258
37	0xbd559b86	-0.05215027
38	0xbdf5b5a7	-0.11997538
39	0xbe0a0780	-0.13479424
40	0x3e63886a	0.22220007
41	0x3e8ac81e	0.27105802
42	0xbd1432e3	-0.03618134
43	0x3c862830	0.016376585
44	0x3eb52a9d	0.35384074
45	0xbc761f68	-0.015022136
46	0xbc9698a5	-0.018383333
47	0x3e94c969	0.29059914
48	0x3eba2691	0.3635755
49	0xbe598ce8	-0.21245158
50	0xbb58e174	-0.0033093365
51	0xbdc63fc4	-0.09680131
52	0x3e8817ea	0.26580745
53	0x3cbcfdb0	0.023070186
54	0xbe786c62	-0.24260095
55	0x3e968559	0.2939861
56	0xbdd66ba6	-0.10469751
57	0xbc9d1b0e	-0.01917794
58	0x3df41c05	0.11919407
59	0x3eb27f57	0.34862778
60	0xbea4e033	-0.322023
61	0xbccd9144	-0.025093682
62	0x3e88ee9f	0.26744553
63	0x3ed5029b	0.4160355

network.2.weight f4 [32, 64]
0	0x3c24ebf4	0.010066021
1	0x3b1c663d	0.002386465
2	0x3e4ccc6c	0.19999856
3	0xbd63aa3c	-0.05558227
4	0x3ea48906	0.3213579
5	0xbe660b94	-0.22465354
6	0xbee00d26	-0.4376003
7	0x3e1b7c10	0.15184045
8	0xbe5dbefc	-0.21654886
9	0x3e345e98	0.1761421
10	0x3bb60e6f	0.00555592
11	0xbdb5d0f7	-0.088777475
12	0x3bb9ef50	0.00567428
13	0xbe8e2eb3	-0.27770004
14	0x3ecffcbf	0.40622517
15	0x3e9a5446	0.3014242
16	0x3e4d1ead	0.20031233
17	0xbe24910e	-0.16070959
18	0x3ea3880a	0.31939727
19	0xbe6a2c4d	-0.22868462
20	0xbdbbf777	-0.091780595
21	0xbe47832c	-0.19483632
22	0xbe922a77	-0.28548023
23	0xbe8eb8d2	-0.27875382
24	0x3e54aa9d	0.20768209
25	0x3dc0f692	0.094220296
26	0x3e2c22d6	0.16810164
27	0xbe35692c	-0.17715901
28	0xbd96c2c2	-0.07361366
29	0x3e460b7b	0.19340317
30	0x3e187ead	0.14892073
31	0xbe2c5369	-0.16828693
32	0x3d245ad5	0.040125687
33	0x3e4ef803	0.20211796
34	0x3e5694a5	0.20955141
35	0xbf02b907	-0.5106358
36	0xbc94703c	-0.018119924
37	0xbe36e3ae	-0.1786029
38	0x3e8a59d7	0.27021667
39	0x3e7fdb48	0.24985993
40	0x3e99a50b	0.3000873
41	0xbd40fc05	-0.047115345
42	0xbda8228f	-0.082097165
43	0xbe464184	-0.1936093
44	0xbea71140	-0.32630348
45	0x3e8692fa	0.2628401
46	0x3a75e2b9	0.00093797926
47	0x3d7bdcf9	0.061490033
48	0xbdc836c3	-0.0977607
49	0xbcca4890	-0.024692804
50	0x3def25c7	0.11677127
51	0xbd9241b6	-0.071414396
52	0x3e370256	0.17871985
53	0x3ef2260a	0.47294647
54	0x3e9072ac	0.28212488
55	0x3e637f2f	0.22216485
56	0xbe95a887	-0.2923014
57	0xbea3bbe9	-0.31979302
58	0xbdc44dc4	-0.09585145
59	0x3e701795	0.23446496
60	0x3ed01b6f	0.4064593
61	0x3e004d34	0.1252945
62	0xbeb3ba68	-0.35103154
63	0xbcfc2cc0	-0.030783057
64	0x3db1ecb3	0.08687725
65	0x3d979775	0.07401935
66	0x3ea2debb	0.31810555
67	0x3e82368f	0.2543225
68	0xbe441ee9	-0.19152416
69	0x3e36fa2c	0.1786887
70	0xbeae5668	-0.34050298
71	0xbd6c3f60	-0.057677627
72	0x3eb9b24b	0.3626884
73	0x3daca547	0.08429962
74	0xbd2b65c1	-0.041845087
75	0xbea2564d	-0.31706467
76	0xbe6d7867	-0.23190461
77	0xbd9eb525	-0.07749394
78	0xbea7a080	-0.3273964
79	0x3e1a73a6	0.15083179
80	0xbe982c62	-0.2972136
81	0xbdae8cf3	-0.08522978
82	0xbd6746d6	-0.05646404
83	0x3e87511d	0.26429072
84	0x3dc6416c	0.09680447
85	0x3d3bdea6	0.04586663
86	0x3e255e49	0.16149248
87	0x3d79f655	0.061025936
88	0xbd91f1d3	-0.071262024
89	0x3ee8ae69	0.45445564
90	0xbeed3824	-0.46331894
91	0x3e918d3f	0.28428075
92	0x3e26266e	0.16225597
93	0xbe45715f	-0.19281529
94	0xbd13b6ee	-0.036063127
95	0x3e87a321	0.26491645
96	0x3a86abd4	0.0010274597
97	0xbe1c887d	-0.15286441
98	0xbe28f648	-0.16500199
99	0xbea7c4bc	-0.32767284
100	0xbee0b840	-0.43890572
101	0x3e088985	0.1333371
102	0xbe948df9	-0.29014567
103	0xbe89dd61	-0.2692671
104	0x3e2eab1e	0.17057464
105	0xbdf3b14a	-0.118990496
106	0x3df29673	0.11845102
107	0x3e606978	0.21915233
108	0xbd3b075a	-0.045661308
109	0xbea8dc8f	-0.32980773
110	0x3e9c3e5f	0.30516335
111	0xbdc2dcf5	-0.095148005
112	0x3e87ea55	0.2654597
113	0x3d7bf3ca	0.061511792
114	0xbd2df408	-0.042469054
115	0xbc53173e	-0.012883959
116	0x3e15e279	0.14637174
117	0x3ef0380b	0.46917757
118	0x3dadc003	0.08483889
119	0xbe070ee6	-0.13189277
120	0x3e6fe2a2	0.23426297
121	0x3e8a897d	0.2705802
122	0x3dffe6e6	0.12495212
123	0x3d189e89	0.037260566
124	0xbe9297b0	-0.28631353
125	0x3e59bd01	0.21263506
126	0x3dfb00b6	0.12255995
127	0xbe0ccfa1	-0.13751079
128	0xbee4f2a6	-0.44716376
129	0xbd8892ae	-0.06668602
130	0x3e6f2743	0.23354821
131	0x3db0c05e	0.08630441
132	0xbe4cbbf5	-0.19993575
133	0x3d8f2d18	0.06991023
134	0x3ec783a6	0.38967627
135	0x3edf9419	0.43667677
136	0xbe894628	-0.26811337
137	0xbe8bac89	-0.2728007
138	0xbde58b94	-0.11208263
139	0x3e2ef569	0.17085804
140	0x3f10fc54	0.5663502
141	0x3e1aee01	0.15129854
142	0x3eabe19e	0.3357057
143	0xbd0b4769	-0.03400365
144	0x3e9d1223	0.306779
145	0xbd84e3ad	-0.06488738
146	0x3d98888d	0.0744792
147	0x3e139733	0.14413147
148	0xbdecf622	-0.115703836
149	0x3e9119ca	0.28339988
150	0x3e930ac8	0.28719163
151	0xbd7c7f22	-0.06164468
152	0xbd81038e	-0.06299506
153	0x3b3f7d6e	0.002921905
154	0x3eb4f074	0.353397
155	0x3d6a7f68	0.05725041
156	0xbeb1998d	-0.34687462
157	0xbd82b258	-0.063816726
158	0xbe82d83e	-0.25555605
159	0xbe0c9e52	-0.1373227
160	0xbe281f05	-0.16418083
161	0x3e0b0f58	0.13580072
162	0xbd953606	-0.07285695
163	0x3e47fc12	0.19529751
164	0x3f04393a	0.5164982
165	0xbe81844c	-0.25296247
166	0x3e8ab639	0.2709215
167	0xbedce515	-0.43143526
168	0x3e9d697f	0.3074455
169	0x3d8e1f96	0.06939618
170	0xbed699ba	-0.4191416
171	0xbeaee0f4	-0.34156
172	0x3d899401	0.06717683
173	0x3e61d892	0.22055271
174	0x3e5f5397	0.2180923
175	0x3e09bd47	0.1345111
176	0xbdd45d77	-0.103693895
177	0xbdc97063	-0.09835889
178	0xbedea04a	-0.43481666
179	0x3e335bc2	0.17515472
180	0xbc44f06b	-0.012020211
181	0xbe9ca064	-0.30591118
182	0xbe4a5049	-0.19757189
183	0xbe25c75b	-0.1618933
184	0x3e63e9ee	0.22257206
185	0x3e757d1f	0.23973511
186	0x3e715b7e	0.23570058
187	0x3e70ac6b	0.23503272
188	0xbe547bc7	-0.20750342
189	0xbd9112b8	-0.070836484
190	0x3e70b549	0.23506655
191	0xbe6bbbc4	-0.23020846
192	0x3e45fd65	0.19334944
193	0x3e5e4cf7	0.21709047
194	0xbc5ff4eb	-0.013669233
195	0x3d938dd6	0.072047874
196	0x3d0604f8	0.032719582
197	0xbdb3bceb	-0.087762676
198	0x3e5f5a85	0.21811874
199	0xbdcd24c6	-0.100167796
200	0x3cd6c3d6	0.026216429
201	0x3e7f3c98	0.24925458
202	0x3d09512c	0.033524677
203	0x3e361d78	0.17784679
204	0x3e6d682b	0.23184268
205	0x3e11e5d0	0.14247823
206	0x3ef113f5	0.47085539
207	0x3e5b06f9	0.21389379
208	0x3e4f0567	0.20216905
209	0xbe3c8225	-0.18409021
210	0x3e9ba82f	0.3040175
211	0xbdb87ebb	-0.09008547
212	0xbe7e629d	-0.24842305
213	0x3e5f1d5c	0.21788543
214	0x3e51f178	0.2050227
215	0x3bedd002	0.0072574625
216	0x3d6609f7	0.056161847
217	0xbdbf9201	-0.0935402
218	0xbdaf2055	-0.08551089
219	0xbe7fe437	-0.24989401
220	0x3da1295d	0.078692175
221	0xbd8b492e	-0.06801067
222	0x3c021d55	0.007941564
223	0xbe1f1679	-0.15535916
224	0xbe8bd9bc	-0.27314556
225	0x3d8c9e2f	0.068661086
226	0x3e1e9583	0.15486722
227	0x3ea32ad9	0.31868628
228	0xbe088d68	-0.13335192
229	0x3e9eda04	0.31025708
230	0x3e83b3a5	0.25722995
231	0xbdfc7496	-0.123269245
232	0x3e85048c	0.25980031
233	0xbc114146	-0.00886566
234	0x3db79ba8	0.08965236
235	0xbda495c9	-0.08036382
236	0xbd37bc79	-0.044857476
237	0x3e5e2173	0.21692447
238	0x3cf21f28	0.029555872
239	0x3abebac6	0.0014551512
240	0xbe64fc7d	-0.22361942
241	0xbda75357	-0.08170193
242	0x3e2aae82	0.16668132
243	0xbdb44072	-0.088013545
244	0xbdaa92f3	-0.083288096
245	0xbe863ffe	-0.26220697
246	0xbe350119	-0.176762
247	0xbd925a2e	-0.07146107
248	0xbe48bb96	-0.19602808
249	0xbdb347d4	-0.087539345
250	0xbcdb9e95	-0.026809016
251	0xbca76918	-0.020435855
252	0xbdee55c1	-0.1163745
253	0x3d56a115	0.052399714
254	0x3e30b28d	0.17255612
255	0x3e7830db	0.24237387

network.2.bias f4 [32]
0	0xbdee22e0	-0.11627746
1	0x3dd6e785	0.104933776
2	0x3daa2468	0.08307725
3	0xbddebf62	-0.10876347
4	0x3db6b789	0.08921725
5	0x3dd7cffc	0.10537717
6	0x3e13cbff	0.14433287
7	0x3d526ec1	0.051375154
8	0xbdce54b3	-0.10074749
9	0x3e3ef88c	0.186495
10	0xbdc224a6	-0.094796464
11	0x3df20867	0.11818009
12	0x3e2af092	0.16693333
13	0x3dbcbc89	0.09215648
14	0x3c794cd2	0.015216069
15	0xbcb23075	-0.021751622
16	0x3e8de2ed	0.27712193
17	0xbda238f5	-0.0792102
18	0x3decfc06	0.11571507
19	0xbe36db1f	-0.17857026
20	0x3d852600	0.065013885
21	0xbdda1237	-0.106480055
22	0x3dbd5c59	0.092461295
23	0xbcc585c0	-0.024111629
24	0x3df4fd34	0.11962357
25	0xbd968f0d	-0.073515035
26	0xbe6a0d69	-0.22856678
27	0xbe1f0d5c	-0.1553244
28	0xbe0c99cd	-0.13730545
29	0x3c4aa611	0.012368695
30	0xbe196556	-0.14980063
31	0x3d3e074f	0.04639369

network.4.weight f4 [1, 32]
0	0xbe777cd5	-0.24168713
1	0x3e2edc63	0.17076258
2	0xbe43c172	-0.19116762
3	0xbcfea476	-0.03108428
4	0xbe72f20a	-0.23725143
5	0x3e1bc0cb	0.15210263
6	0x3e06b21a	0.13153878
7	0xbe99ac97	-0.30014488
8	0xbe8242fd	-0.25441733
9	0x3f349c71	0.7055121
10	0xbeb44add	-0.35213366
11	0xbee7dcea	-0.45285732
12	0x3f0bcb8b	0.54607457
13	0xbe922bfd	-0.28549185
14	0x3f33f2c2	0.70292294
15	0x3e53c6d3	0.20681314
16	0x3f295302	0.66142285
17	0x3dd5471e	0.10413955
18	0xbf03e376	-0.5151895
19	0xbeb30bdd	-0.34969988
20	0xbddb7a5e	-0.10716699
21	0xbe3de92d	-0.18545981
22	0x3d0cded9	0.03439221
23	0xbda6ec23	-0.08150508
24	0xbe1ca0b6	-0.15295681
25	0xbbe9312a	-0.0071164565
26	0x3f03c0e3	0.51466197
27	0xbe90a8b5	-0.28253713
28	0x3ec97ff4	0.39355433
29	0xbea5596e	-0.32294792
30	0x3ea653db	0.32485852
31	0x3e8c4a70	0.2740054
