mlp_tanh_model.pth (torch, 13838 bytes, 5 tensors)

network.0.weight f4 [64, 9]
0	0xbf74c8ae	-0.9561871
1	0xbe5d3da5	-0.21605547
2	0x3d0c5d95	0.034268934
3	0xbb966adc	-0.0045903753
4	0x3da6f2f3	0.08151808
5	0xbce5c056	-0.028045814
6	0x3e4430d1	0.19159247
7	0x3e2f90b2	0.1714504
8	0xbe183220	-0.14862871
9	0x3c2bb565	0.01048026
10	0xbe534dea	-0.2063519
11	0xbd3c105b	-0.045914035
12	0x3dfda81a	0.123855785
13	0x3e554093	0.20825414
14	0x3d0a1bfc	0.033718094
15	0xbe7261c2	-0.23670104
16	0x3c43b3f8	0.011944763
17	0x3ca56f1f	0.020194588
18	0xbeae739e	-0.34072584
19	0x3d8236d9	0.063581176
20	0xbe0eb2f2	-0.1393545
21	0xbd68efe2	-0.056869395
22	0xbe9c2358	-0.30495715
23	0xbe593274	-0.21210653
24	0x3da45f7d	0.080260254
25	0xbe843741	-0.25823405
26	0x3dafa569	0.08576471
27	0xbf1c3859	-0.6102348
28	0x3e216740	0.15762043
29	0xbea22e6d	-0.31676045
30	0x3d9b7522	0.07590701
31	0x3e378bd6	0.17924437
32	0xbc99f4a4	-0.018793412
33	0x3e40002b	0.18750064
34	0xbdad5601	-0.084636696
35	0x3e436dfe	0.19084927
36	0x3d42b98e	0.04754024
37	0xbe2912be	-0.16511056
38	0x3e6cb20d	0.23114796
39	0x3e9611ec	0.29310548
40	0xbe3ca259	-0.18421306
41	0xbe5fcef5	-0.21856292
42	0xbea0270d	-0.31279793
43	0x3e536d2e	0.20647117
44	0xbe798c25	-0.24369867
45	0xbe8b2b06	-0.27181262
46	0x3e538e4e	0.20659754
47	0xbd5b0285	-0.0534692
48	0xbd710c6e	-0.058849744
49	0xbe77c649	-0.24196734
50	0xbe2da6b6	-0.16958126
51	0x3e02f311	0.12788035
52	0xbe7afbb6	-0.24510083
53	0xbe1b744b	-0.15181081
54	0xbe8f8c0c	-0.28036535
55	0x3e2f3054	0.1710828
56	0xbed2d54b	-0.41178355
57	0xbdc574f2	-0.09641446
58	0x3dcdb1fe	0.10043715
59	0xbe3cf5ab	-0.1845309
60	0x3ea56287	0.32301733
61	0xbec23434	-0.37930453
62	0x3df9c106	0.121950194
63	0x3f2fa68c	0.68613505
64	0x3e426a5b	0.18985884
65	0xbe446d19	-0.19182242
66	0x3e3c3c68	0.18382418
67	0xbd2d0a8d	-0.04224639
68	0xbdc01385	-0.09378723
69	0xbd538096	-0.0516363
70	0x3e706273	0.23475055
71	0xbdcb0b2f	-0.099142425
72	0x3de039f1	0.109485514
73	0xbd53c037	-0.051696982
74	0x3e1bfff5	0.15234359
75	0x3dcdb09c	0.10043451
76	0x3e6cf04b	0.2313854
77	0xbe625ab7	-0.22104917
78	0x3d57fe20	0.052732587
79	0x3e64452c	0.22292012
80	0x3eac078b	0.33599505
81	0xbfa8b6ad	-1.3180748
82	0xbe555955	-0.20834859
83	0xbdd31500	-0.1030674
84	0x3cc36294	0.023850717
85	0xbe1ba2de	-0.15198848
86	0x3e72ee26	0.23723659
87	0x3eaadd48	0.3337195
88	0xbe1a04a8	-0.15040839
89	0x3e012afd	0.12614055
90	0x3f35f303	0.7107393
91	0x3e8d626d	0.27614155
92	0xbe87087b	-0.26373658
93	0x3e899771	0.26873353
94	0xbe6dd4b5	-0.23225673
95	0xbe14be1a	-0.14525643
96	0x3e88963f	0.2667713
97	0x3e3f20e5	0.18664892
98	0xbc262564	-0.010140751
99	0x3e9daa40	0.30793953
100	0xbe46f329	-0.19428696
101	0x3dafbefa	0.08581348
102	0x3eaf6ca6	0.3426258
103	0x3e2a4332	0.16627195
104	0xbaf8906a	-0.0018963937
105	0x3d2e9bfb	0.042629223
106	0x3e096d97	0.13420711
107	0xbe13d818	-0.14437902
108	0x3f1c0ceb	0.6095721
109	0x3d3994fa	0.04530809
110	0xbe0495ea	-0.12947813
111	0x3e7b145c	0.24519485
112	0xbe4dd3df	-0.20100354
113	0xbebfa728	-0.37432218
114	0xbe9bc95b	-0.3042706
115	0x3e7adaf1	0.24497582
116	0x3e400bc5	0.1875449
117	0xbec4f49e	-0.38467878
118	0xbe29241a	-0.16517678
119	0x3d74305b	0.059616428
120	0xbe922079	-0.285404
121	0xbd699feb	-0.057037275
122	0x3e26749d	0.16255422
123	0xbd35fdfe	-0.04443168
124	0x3e7eca5d	0.24881883
125	0x3e2ed025	0.17071588
126	0xbd38314e	-0.044968896
127	0x3d18d6df	0.037314292
128	0xbe482bc9	-0.19547953
129	0xbe1c13fe	-0.15242001
130	0xbe9dc472	-0.30813938
131	0x3e9b84e1	0.30374816
132	0x3eb7a5eb	0.35868773
133	0x3d05452d	0.032536674
134	0xbd800bd1	-0.06252254
135	0xbec0a17c	-0.37623203
136	0xbe007b7f	-0.1254711
137	0xbd58db6d	-0.052943636
138	0xbcc6ee20	-0.024283469
139	0x3dce3bbd	0.10069988
140	0x3c1d2503	0.009591344
141	0x3defa241	0.11700869
142	0x3e9d9e4b	0.3078483
143	0x3e113406	0.14180002
144	0xbccb96bb	-0.024852147
145	0xbecb31fb	-0.3968657
146	0x3dd8c921	0.10585237
147	0x3e2dad27	0.16960584
148	0x3e374861	0.17898704
149	0x3e9f7137	0.31141064
150	0x3da2fac2	0.079579845
151	0xbe74ae3c	-0.2389459
152	0xbe82296a	-0.2542222
153	0xbf1cc010	-0.61230564
154	0xbe27c509	-0.16383757
155	0x3e8c7587	0.27433416
156	0x3e264eee	0.16241047
157	0xbe2af256	-0.16694006
158	0x3c4f9312	0.012669342
159	0xbe69b354	-0.22822315
160	0x3dad665a	0.08466788
161	0x3deb7940	0.11497736
162	0x3c81004c	0.015747212
163	0x3e3e2f85	0.18572815
164	0x3e25b463	0.16182093
165	0xbeaed62b	-0.34147772
166	0x3dc7407e	0.09729098
167	0x3d1e2119	0.038605783
168	0xbe17036f	-0.14747404
169	0xbea541a8	-0.32276654
170	0x3d1be91e	0.038064115
171	0xbf1f144a	-0.62140334
172	0xbe94126f	-0.28920314
173	0xbe49883b	-0.19680874
174	0xbd168266	-0.03674545
175	0x3d047aab	0.032343548
176	0xbdc6e701	-0.09712029
177	0x3e5fedf8	0.21868122
178	0xbf1917c5	-0.59801894
179	0xbea60b56	-0.32430524
180	0xbf16ed33	-0.5895569
181	0x3dcb4057	0.09924381
182	0x3e8bd41e	0.2731027
183	0xbe956099	-0.2917526
184	0xbd13411f	-0.035950776
185	0xbd12fe01	-0.03588677
186	0x3e880fc5	0.2657453
187	0xbd32416c	-0.043519422
188	0x3d1ecdea	0.038770594
189	0xbf0d32b7	-0.5515551
190	0xbeb9b723	-0.36272535
191	0xbeaa0c5b	-0.3321255
192	0xbcbb41ff	-0.022858618
193	0xbdce7bb5	-0.10082189
194	0x3df1d465	0.11808089
195	0x3f0059e5	0.5013717
196	0xbe9b7b55	-0.30367532
197	0xbe6e6b70	-0.23283172
198	0x3f79f8ed	0.97645456
199	0x3e8bece0	0.2732916
200	0xbe376dbd	-0.17912956
201	0x3cf3ed02	0.0297761
202	0x3d6878d8	0.05675587
203	0xbdc632d2	-0.09677662
204	0xbef715ee	-0.4825892
205	0x3edc8c20	0.43075657
206	0x3e483238	0.19550407
207	0xbe6d1c5e	-0.23155352
208	0x3e6d1796	0.23153529
209	0x3d923d04	0.07140544
210	0xbe7d4546	-0.24733457
211	0x3d5acd03	0.05341817
212	0x3e18f144	0.14935786
213	0x3d8e2590	0.06940758
214	0x3d418869	0.04724923
215	0x3e91136f	0.2833514
216	0xbf6825ab	-0.90682477
217	0xbe8efac0	-0.27925682
218	0x3d229fff	0.039703365
219	0xbe07be07	-0.13256083
220	0x3e0f264e	0.13979456
221	0x3d048317	0.03235158
222	0x3ea717a8	0.32635236
223	0x3dfe9b5e	0.12431978
224	0xbe1390e2	-0.14410737
225	0x3f15024d	0.58206636
226	0x3e95ee69	0.29283455
227	0xbe87a716	-0.26494664
228	0xbcdbe8a4	-0.02684433
229	0x3d883c42	0.06652118
230	0xbe582dab	-0.21111171
231	0x3dc28e86	0.094998404
232	0x3c55a0c4	0.013038818
233	0x3e37e6cf	0.1795914
234	0x3f8ca348	1.098733
235	0x3dd8ee3f	0.10592317
236	0xbe006ac8	-0.12540734
237	0x3e6aa7bf	0.22915553
238	0x3c8a59d6	0.01688854
239	0x3cc804c5	0.024416337
240	0xbf0bb2b6	-0.54569566
241	0x3c6767de	0.014123885
242	0xbed0d849	-0.40790012
243	0xbe3a7356	-0.1820806
244	0xbd75250d	-0.059849788
245	0x3dd000ae	0.1015638
246	0xbe90c5f1	-0.28276017
247	0xbe0326e3	-0.12807803
248	0xbea200c0	-0.31641197
249	0x3e834f84	0.25646603
250	0xbd4e79c0	-0.05040908
251	0x3dde342c	0.10849795
252	0xbeb98515	-0.36234346
253	0xbe1350bd	-0.14386268
254	0x3e30a4e8	0.17250407
255	0xbe817fc2	-0.25292784

network.0.bias f4 [64]
0	0xbe818e5d	-0.25303927
1	0x3c1c1efa	0.00952887
2	0xbd746706	-0.059668563
3	0xbcf9995d	-0.030468637
4	0x3ea2e8d1	0.3181825
5	0xbe3cd0e2	-0.18439057
6	0x3e0dd95f	0.13852452
7	0x3e87645d	0.2644376
8	0x3ea612a9	0.32436112
9	0x3dc40f62	0.095732465
10	0x3e24c9f0	0.16092658
11	0x3e760d0b	0.24028413
12	0x3e7d20bb	0.24719517
13	0x3dc8c5a4	0.09803322
14	0xbd7dce26	-0.061964177
15	0xbe8b1fcf	-0.27172706
16	0x3e10240d	0.14076252
17	0xbb051ffd	-0.0020313256
18	0x3e8666b9	0.26250246
19	0x3e25f90d	0.16208287
20	0x3e145345	0.1448489
21	0x3d697950	0.05700046
22	0x3dd6e590	0.10493004
23	0xbd63a10d	-0.055573512
24	0xbe9c2760	-0.3049879
25	0xbd4bf9db	-0.049798828
26	0x3ec852dc	0.39125717
27	0x3ea99840	0.3312397
28	0x3ce9fbbc	0.02856242
29	0xbe42bd25	-0.19017465
30	0x3e02adbe	0.1276159
31	0xbe0634a7	-0.13106023
32	0x3dcd8e36	0.1003689
33	0x3e88ebb3	0.26742324
34	0xbea1b267	-0.31581423
35	0xbe6c2be5	-0.2306362
36	0xba8207d1	-0.0009920542
37	0x3e071df4	0.1319502
38	0x3e07e0e3	0.13269381
39	0xbdc10548	-0.094248354
40	0xbdb91c30	-0.090385795
41	0xbe383321	-0.17988254
42	0x3ec90a8d	0.39265862
43	0xbea25072	-0.31702
44	0x3eab530a	0.3346179
45	0xbc90d346	-0.017678868
46	0x3e961eb6	0.29320306
47	0xbc202709	-0.009774932
48	0x3def0fa0	0.11672902
49	0x3e637f64	0.22216564
50	0x3e1ca3df	0.15296887
51	0x3e8f8d23	0.28037366
52	0xbdac751f	-0.084207766
53	0x3cb78601	0.022402765
54	0xbd5c90f5	-0.05384918
55	0xbc35b53a	-0.011090571
56	0xbe06fae2	-0.13181642
57	0x3e82d4b8	0.25552917
58	0xbd81ddea	-0.06341155
59	0xbc9adb7c	-0.018903486
60	0x3e499c84	0.19688612
61	0x3dc48372	0.09595384
62	0x3e867d5d	0.2626752
63	0x3e9edd15	0.31028047

network.2.weight f4 [32, 64]
0	0xbe39a07e	-0.18127629
1	0xbd3d751c	-0.046254262
2	0xbe1ddc2d	-0.15416022
3	0xbc2f3970	-0.0106948465
4	0xbe7f97c6	-0.2496024
5	0x3e6cccbf	0.2312498
6	0x3da27231	0.079319365
7	0x3d210a06	0.0393162
8	0x3e14fc50	0.14549375
9	0xbe74c9bc	-0.2390508
10	0x3d6d9a4b	0.058008473
11	0xbe2632d9	-0.16230334
12	0xbe36b65e	-0.17843005
13	0x3df12e8a	0.11776455
14	0x3db1fec4	0.08691171
15	0x3dda41cd	0.10657082
16	0xbd130c82	-0.0359006
17	0xbd875556	-0.066080734
18	0x3da42416	0.08014695
19	0x3e114db6	0.141898
20	0x3e4213ad	0.18952818
21	0x3d1aa982	0.03775931
22	0xbe28afb2	-0.16473272
23	0xbe139b1b	-0.14414637
24	0x3dd35be1	0.10320259
25	0xbe87e1fb	-0.26539597
26	0xbe047a6c	-0.12937325
27	0x3d725778	0.059165448
28	0x3d78b76f	0.06072181
29	0xbe834264	-0.2563659
30	0x3e2fb078	0.17157161
31	0x3e062010	0.13098168
32	0xbdef7b23	-0.11693408
33	0x3e13de10	0.14440179
34	0x3e85459c	0.2602967
35	0xbdc17915	-0.09446923
36	0xbe1337a8	-0.143767
37	0x3e086db9	0.13323106
38	0xbe2a3dd7	-0.16625153
39	0x3de0f03a	0.109833196
40	0xbe3df42c	-0.18550175
41	0xbd8e5a2c	-0.06950793
42	0x3e83c9fd	0.25740042
43	0xbe0386b5	-0.12844355
44	0x3e2f3092	0.17108372
45	0xbe50cb94	-0.20390159
46	0x3e3c3bd6	0.183822
47	0x3db7d8e8	0.089769185
48	0x3c50d42b	0.012745897
49	0x3e53f664	0.2069946
50	0x3e1cca0c	0.1531145
51	0xbe8a63b0	-0.2702918
52	0xbd9adad0	-0.075612664
53	0x3d950e6a	0.0727814
54	0xbdaaec24	-0.083458215
55	0x3dfbd0ac	0.122956604
56	0xbe5f6a65	-0.2181793
57	0x3d5f4d3a	0.05451701
58	0x3c90d91d	0.017681653
59	0x3eac890e	0.33698314
60	0xbe363578	-0.17793834
61	0xbdb4fa5b	-0.08836814
62	0xbaaaf530	-0.0013043042
63	0xbe299622	-0.16561177
64	0x3e1fae96	0.15593943
65	0x3e5a7e39	0.21337213
66	0x3e47ee7a	0.19524565
67	0x3d69bb1e	0.057063214
68	0xbe5fcc7a	-0.21855345
69	0x3b036670	0.0020050071
70	0xbe8b51c8	-0.27210832
71	0xbd9e9fca	-0.07745321
72	0xbe21d77b	-0.15804856
73	0x3ebe05db	0.37113842
74	0xbe83e865	-0.2576324
75	0xbe7beaa9	-0.24601234
76	0xbe98fa80	-0.29878616
77	0x3eb8d7e6	0.36102217
78	0x3db31a59	0.0874526
79	0x3ecc93e0	0.3995657
80	0xbd2786fc	-0.040900216
81	0x3eb40129	0.35157135
82	0xbdad21b3	-0.08453693
83	0xbea24e8c	-0.31700552
84	0x3cbde0d3	0.023178494
85	0x3e0c65f8	0.13710773
86	0x3e318d55	0.1733907
87	0x3e203f3f	0.15649126
88	0x3eb4bdd1	0.35301068
89	0xbdc65074	-0.09683314
90	0xbe7e30dc	-0.24823326
91	0xbe423594	-0.18965751
92	0xbe3bdcf8	-0.18346012
93	0x3dbe1302	0.09280969
94	0xbeb7809e	-0.35840315
95	0x3e91345b	0.28360257
96	0xbef3365e	-0.47502416
97	0x3d1499d8	0.03627953
98	0x3e7433e8	0.23847926
99	0xbdcb2720	-0.09919572
100	0xbe8640bc	-0.26221263
101	0x3be1f44c	0.0068955775
102	0x3e7d8ebe	0.24761483
103	0x3daf8aeb	0.085714184
104	0x3dd2ce33	0.10293236
105	0x3ddb34d6	0.10703437
106	0xbeb59ae2	-0.3546973
107	0x3ee7ec7a	0.45297605
108	0xbeb6a505	-0.35672775
109	0xbdf96555	-0.12177531
110	0x3d5cb0c7	0.053879526
111	0x3c37d523	0.011220249
112	0xbdfb68c8	-0.12275845
113	0xbe50a78b	-0.20376413
114	0xbc78796a	-0.015165666
115	0x3dd8e7e6	0.10591106
116	0x3dcb176f	0.09916579
117	0x3d11f8da	0.035637714
118	0x3eb01ccf	0.3439698
119	0xbd0c220a	-0.03421215
120	0xbdd7e791	-0.10542215
121	0xbe98f629	-0.29875305
122	0x3e17ce6e	0.1482484
123	0x3d6399d2	0.055566616
124	0xbe849990	-0.2589841
125	0x3de71c1d	0.11284659
126	0xbeaed3f5	-0.34146085
127	0xbe4ab25b	-0.197946
128	0x3eafad47	0.34311888
129	0x3e2bf289	0.16791739
130	0xbd63aefc	-0.0555868
131	0x3e834066	0.2563507
132	0x3e0d72ea	0.13813367
133	0xbe512c5b	-0.20427077
134	0xbe4ed7a9	-0.20199455
135	0xbe09a513	-0.13441877
136	0xbd81d0a2	-0.06338622
137	0x3cbee98c	0.023304723
138	0xbed2a2ec	-0.41139925
139	0x3e4194fa	0.18904486
140	0xbdd7ce0f	-0.105373494
141	0x3d0f10eb	0.034928244
142	0xbe55a55b	-0.2086386
143	0x3c5eb872	0.01359378
144	0x3e8f18bf	0.27948567
145	0x3e99c636	0.30034035
146	0xbdec8756	-0.11549251
147	0x3e69b2c6	0.22822103
148	0x3e890ff4	0.26769984
149	0xbcdb25da	-0.026751447
150	0x3d71ca69	0.059030924
151	0xbdd98267	-0.106205754
152	0x3cb9a145	0.022659907
153	0xbef9fadf	-0.48824212
154	0xbeb641e0	-0.35597134
155	0x3e0a72b0	0.13520312
156	0x3e968b12	0.29402977
157	0xbe838868	-0.25690007
158	0xbe23e93f	-0.16006945
159	0x3e97b623	0.29631147
160	0xbeaab4a4	-0.33340943
161	0x3c97b041	0.018516662
162	0x3efee663	0.49785146
163	0xbe4972c4	-0.19672686
164	0x3ec0fb5f	0.3769178
165	0x3e8a16c6	0.269705
166	0x3e9f1125	0.31067768
167	0xbc76b772	-0.015058385
168	0x3e991611	0.29899648
169	0xbe8d04d0	-0.27542734
170	0xbee568e3	-0.44806585
171	0x3e02b84b	0.12765615
172	0x3d749a2b	0.05971734
173	0xbd4f4092	-0.05059869
174	0xbe34b988	-0.176489
175	0x3daa77a3	0.083236
176	0xbe36f938	-0.17868507
177	0xbe8becfd	-0.27329245
178	0x3d897b07	0.06712919
179	0xbe8add33	-0.27121887
180	0x3e2ee5e3	0.17079882
181	0xbe1696b7	-0.1470593
182	0x3dbcbb90	0.09215462
183	0xbd3ef5dc	-0.04662119
184	0x3e5b917e	0.2144222
185	0x3da01461	0.07816387
186	0x3ea2850d	0.31742135
187	0x3e5a6b81	0.21330072
188	0x3e029d09	0.12755217
189	0x3eb3ed37	0.35141918
190	0xbd44821c	-0.047975644
191	0x3e0a0642	0.1347895
192	0xbdde9231	-0.108677275
193	0x3e0931ad	0.13397856
194	0xbe8aa957	-0.2708232
195	0xbe08e688	-0.1336919
196	0x3ebf1453	0.37320194
197	0xbe6fc00b	-0.23413102
198	0xbeb8b8a1	-0.3607836
199	0x3e93918c	0.2882198
200	0xbc9fc2aa	-0.019502003
201	0xbf133b74	-0.57512593
202	0x3e58a63c	0.21157163
203	0xbdca1d7a	-0.098689035
204	0x3de6875f	0.11256289
205	0xbe0dfd67	-0.13866197
206	0xbde81f7b	-0.113341294
207	0xbe4b2577	-0.1983851
208	0xbd85eaa4	-0.06538895
209	0x3dc82577	0.09772771
210	0xbd8e8567	-0.06959038
211	0xbf0b7e58	-0.5448966
212	0xbe0ae0c0	-0.13562298
213	0xbed0a177	-0.40748188
214	0x3ef44936	0.47712106
215	0xbe453beb	-0.19261138
216	0xbe770f59	-0.24126948
217	0x3e7873d6	0.24262938
218	0x3ed0b950	0.40766382
219	0xbe18587d	-0.14877506
220	0xbb830772	-0.0039986903
221	0xbea36073	-0.31909522
222	0x3dd8e416	0.10590379
223	0xbe1bf104	-0.15228659
224	0xbe3361c6	-0.17517766
225	0x3e05716d	0.1303155
226	0x3e416e52	0.1888974
227	0x3d65286e	0.05594676
228	0xbeab3cbf	-0.33444783
229	0x3e08e806	0.1336976
230	0xbf33b831	-0.7020293
231	0xbea7fbff	-0.32809445
232	0xbedf7387	-0.43642828
233	0xbd2d2f92	-0.042281695
234	0xbe1cd754	-0.15316516
235	0xbcd64505	-0.026155958
236	0x3ea77ba1	0.3271151
237	0x3e9d032b	0.3066648
238	0xbecd16ee	-0.40056556
239	0xbe04c952	-0.12967423
240	0xbb682126	-0.0035420149
241	0x3dc9bf2c	0.09850916
242	0x3e084b7c	0.13310045
243	0x3e818cd9	0.2530277
244	0x3e1d4863	0.15359645
245	0x3b8784bd	0.0041356967
246	0xbe45c25b	-0.19312422
247	0x3d752db3	0.059858035
248	0xbe99c0a5	-0.3002979
249	0x3e8c7f9b	0.27441105
250	0xba3cd508	-0.0007203375
251	0x3db6832d	0.089117385
252	0xbe991eaf	-0.29906222
253	0x3bf554a6	0.0074868975
254	0x3e971f2e	0.29515976
255	0xbc688bea	-0.014193514

network.2.bias f4 [32]
0	0xbd336dbb	-0.04380582
1	0xbda4d1dd	-0.08047841
2	0x3cc91221	0.024544777
3	0x3d03a2c6	0.032137655
4	0x3dca96f5	0.09892074
5	0xbd92db6d	-0.071707584
6	0x3caebdf5	0.021330813
7	0xbdb02e4f	-0.08602583
8	0x3e4ac3ba	0.19801226
9	0xbde2ca16	-0.11073701
10	0x3e074540	0.1321001
11	0x3beaf6f8	0.0071705543
12	0x3df8cd67	0.121485524
13	0xbc985922	-0.01859719
14	0x3b13e3bd	0.0022566163
15	0xbdbed595	-0.09318081
16	0x3d930ad7	0.07179802
17	0xbd814828	-0.06312591
18	0x3d65d927	0.056115296
19	0xbc8f00e8	-0.017456487
20	0x3db341e5	0.08752803
21	0x3e2090d2	0.15680245
22	0x3d2a0173	0.04150529
23	0xbd0b1a4d	-0.03396063
24	0xbd92817e	-0.07153605
25	0xbdf55d6b	-0.11980709
26	0x3dfb95f9	0.122844644
27	0x3ca1fbe3	0.01977343
28	0x3d48a7a5	0.048988003
29	0x3d703f2a	0.058653988
30	0xbe072749	-0.1319858
31	0xbe23e79d	-0.16006322

network.4.weight f4 [1, 32]
0	0x3dd9030d	0.10596285
1	0xbe98eceb	-0.29868254
2	0xbe600065	-0.2187515
3	0xbea17a21	-0.3153849
4	0x3e34ac26	0.17643794
5	0xbe4215c8	-0.18953621
6	0xbda3ef8b	-0.080046736
7	0xbe07a0b5	-0.13244899
8	0x3e89eaa8	0.2693684
9	0xbe552baa	-0.20817438
10	0xbe438ccb	-0.19096677
11	0x3e614558	0.21999109
12	0x3ef0caca	0.47029716
13	0x3e6bd10e	0.23028967
14	0x3ec3316d	0.38123646
15	0x3dc5f125	0.09665135
16	0x3e0af369	0.13569416
17	0x3eaf3a84	0.3422433
18	0x3e08166a	0.132898
19	0x3e1ff0df	0.15619229
20	0x3e74680e	0.23867819
21	0x3da96aa4	0.08272293
22	0xbd88319a	-0.06650086
23	0x3e2b7515	0.16743882
24	0xbe6aed19	-0.22942008
25	0x3e7d297a	0.24722853
26	0x3e982ed0	0.29723215
27	0x3e71d92a	0.23617998
28	0x3e1caabf	0.1529951
29	0x3e61810d	0.22021885
30	0xbe1cf743	-0.15328698
31	0xbe830079	-0.25586298
